weights/best_model.pth (torch, 249799 bytes, 10 tensors)

c1.weight f4 [6, 1, 5, 5]
-0.2289773 -0.107148245 0.069674894 0.48258233 -0.16699494 -0.08843926 -0.32361466 -0.03403856
0.5379334 -0.09955965 -0.21841685 -0.45294112 0.29692563 0.34926072 0.03451972 -0.28862318
-0.32481253 0.13853745 0.4264228 0.008517161 -0.073443376 -0.27541536 -0.022992238 0.44630972
-0.07044047 -0.09106266 -0.060758334 0.11414593 0.01474289 -0.35968313 -0.051619146 0.19223873
0.31609303 0.24259056 0.12492718 -0.1746439 0.041909292 0.39941594 0.25170496 0.1019882
-0.28764153 -0.071383014 0.18052688 0.23480442 0.16597709 -0.08327358 -0.14390816 -0.32771286
-0.38523486 -0.21711275 -0.24983558 -0.7406715 -1.9438565 -1.2799011 -0.30177394 0.22456427
-0.33289376 -0.6180622 -0.616599 0.14296438 -0.02933817 0.22958052 0.01886376 0.40202126
0.057653554 0.19893129 0.33889288 0.298128 0.127423 0.056420863 0.2477754 0.3156165
0.112266704 0.11624425 -0.20256674 -0.30004978 0.050754514 -0.026226172 -0.29228956 -0.32541418
-0.11097628 0.12079962 0.24502523 -0.1419864 -0.35585162 0.08540828 0.112173446 0.19824786
0.19257589 -0.24135709 -0.13685304 0.037449595 0.17052448 0.11816809 -0.010052536 -0.086057164
0.030439299 0.27927113 0.28726068 0.0034166719 -0.1398925 0.15373859 -0.027535863 -0.012755901
0.020311404 -0.03538993 0.07101302 0.13109541 0.044749174 -0.2222308 -0.21311885 0.29973668
0.3483734 0.22906381 -0.0303874 -0.015404517 0.22964625 0.12919964 0.115477495 -0.1866618
-0.051477518 0.17391656 -0.026944576 0.12502895 -0.08012289 -0.30895728 -0.29090378 -0.09317966
-0.1292385 -0.054883923 0.12770866 -0.22338116 -0.09278322 0.15014966 -0.18048723 0.11867628
-0.013070045 -0.1524158 -0.042706043 0.07454847 0.019723061 -0.121852614 0.17744762 0.13341428
0.16145328 -0.063433416 0.22528906 0.22924422 0.390939 0.274264
00000000: 0679 6abe 8a70 dbbd b6b1 8e3d 0815 f73e
00000010: b900 2bbe a51f b5bd d2b0 a5be 046c 0bbd
00000020: 01b6 093f eee5 cbbd aba8 5fbe e6e7 e7be
00000030: a306 983e 4dd2 b23e 8d64 0d3d 6bc6 93be
00000040: d44d a6be c3dc 0d3e 1754 da3e 908b 0b3c
00000050: 7b69 96bd 3e03 8dbe 385a bcbc b582 e43e
00000060: 1843 90bd 0f7f babd bbdd 78bd 57c5 e93d
00000070: 2a8c 713c 6328 b8be 996e 53bd 3bda 443e
00000080: f2d6 a13e a969 783e d2d9 ff3d dad5 32be
00000090: 14a9 2b3d 3f80 cc3e 79df 803e 30df d03d
000000a0: c045 93be 4231 92bd 0adc 383e 9270 703e
000000b0: e6f5 293e 578b aabd a95c 13be fbc9 a7be
000000c0: 813d c5be ce52 5ebe e6d4 7fbe a69c 3dbf
000000d0: 4ad0 f8bf cdd3 a3bf 1d82 9abe 2df4 653e
000000e0: 0d71 aabe 5339 1ebf 6fd9 1dbf 4165 123e
000000f0: 9a56 f0bc 2817 6b3e 2c88 9a3c bbd5 cd3e
00000100: 2226 6c3d a5b4 4b3e 5e83 ad3e 3ca4 983e
00000110: 2d7b 023e 9019 673d d6b8 7d3e 7c98 a13e
00000120: 16ec e53d 7711 ee3d a86d 4fbe 20a0 99be
00000130: f7e3 4f3d 45d8 d6bc faa6 95be b09c a6be
00000140: 8847 e3bd cb65 f73d e5e7 7a3e e264 11be
00000150: 2f32 b6be 89ea ae3d 31bb e53d 7d01 4b3e
00000160: 9d32 453e 5026 77be 3423 0cbe bf64 193d
00000170: f89d 2e3e 1d02 f23d 64b3 24bc bd3e b0bd
00000180: d65b f93c a0fc 8e3e d513 933e 3eea 5f3b
00000190: fb3f 0fbe a66d 1d3e e492 e1bc 20fe 50bc
000001a0: 1a64 a63c 08f5 10bd 466f 913d e03d 063e
000001b0: e94a 373d 7990 63be d43b 5abe 1677 993e
000001c0: 005e b23e b48f 6a3e ffee f8bc 3a63 7cbc
000001d0: 6328 6b3e e94c 043e 777f ec3d 4524 3fbe
000001e0: 17da 52bd 2f17 323e dfba dcbc 9707 003e
000001f0: 7817 a4bd a62f 9ebe 57f1 94be fad4 bebd
00000200: 1957 04be f7cd 60bd 0fc6 023e 08be 64be
00000210: 2105 bebd d5c0 193e a5d1 38be 8d0c f33d
00000220: be23 56bc e312 1cbe 88ec 2ebd deac 983d
00000230: 4292 a13c dd8d f9bd d4b4 353e c19d 083e
00000240: 0254 253e 61e9 81bd 2db2 663e ffbe 6a3e
00000250: 2829 c83e 556c 8c3e

c1.bias f4 [6]
-0.06846344 0.02023202 0.13496588 0.22128761 -0.0049313447 0.15768963
00000000: 8f36 8cbd 9fbd a53c 7f34 0a3e 3899 623e
00000010: 1e97 a1bb 6479 213e

c3.weight f4 [16, 6, 5, 5]
0.077481136 0.038462196 0.07959753 -0.2831719 -0.25003952 -0.0030989675 0.020405697 0.054553445
-0.40728748 -0.16198193 -0.12687638 -0.056829996 -0.22838704 -0.32004267 -0.09831837 -0.1876283
-0.026627062 -0.20633313 -0.66316295 -0.28349477 0.066464856 0.18844269 -0.30476782 -1.0568682
-0.7014555 -0.023409113 -0.29725516 0.008348271 0.009246729 -0.14546598 0.05505368 -0.08393404
0.13661854 -0.034477375 -0.20186746 0.11058832 -0.08405693 0.101933 0.12381067 -0.010063617
0.03480188 -0.17964523 0.09300242 -0.027073301 -0.066184595 -0.035055645 0.12997858 0.1916728
0.04914869 -0.27485502 0.19735731 0.1644891 -0.07396289 -0.05593099 -0.19885105 0.39275604
0.02077721 -0.3407198 -0.34770522 -0.5242302 0.0057749315 -0.03468558 -0.17465563 -0.1236783
-0.28901115 -0.21534076 -0.17238176 0.1958587 -0.13089272 -0.29388008 0.11571649 -0.001540722
0.2554895 0.24380255 0.17438453 0.16243567 -0.22995593 0.14914568 0.18374531 -0.09117697
0.30422077 -0.19243468 0.044805434 0.19706443 0.018878527 0.07610079 -0.27998707 0.0672324
0.044159334 -0.045168284 0.017940037 -0.10262227 0.109510824 -0.08066289 -0.16663738 -0.20502661
-0.05084391 0.043398496 -0.012346649 -0.3842357 -0.110281825 -0.26237106 -0.024070108 0.13937216
0.024141403 -0.08573004 -0.13281757 0.0049371417 0.1341541 0.12644076 -0.028248174 -0.0600326
0.13141531 0.19886968 0.13667496 0.045772407 0.024632575 0.1583424 0.17765298 -0.04481613
-0.23692656 0.092241265 0.3076555 0.05499968 -0.23319708 -0.074377395 0.10620583 0.07193062
-0.047978472 -0.08977991 -0.016930552 0.06464477 0.007277093 0.08252506 0.003059308 -0.038390785
-0.07122765 0.0857825 0.051917084 -0.05882234 -0.17172277 0.21329002 0.23410077 -0.010946401
-0.3619285 -0.073315896 0.21237835 0.18295886 -0.1527861 -0.45327547 -0.069425985 0.11451469
-0.1800563 -0.173295 -0.5829753 -0.0111041395 0.17060754 0.15291263 0.22129095 -0.42785633
-0.22280805 0.12091631 0.14562283 0.4796928 -0.40375882 -0.4389228 0.05285027 0.116802804
0.50284547 -0.17730428 -0.5222539 0.07409667 -0.048478972 0.2855113 -0.09656143 0.062492102
0.071902305 -0.06190405 -0.1838931 -0.11800471 0.15875547 0.04834642 0.11334472 0.11281075
-0.048396956 -0.03871773 -0.111008056 -0.040451314 0.22455548 0.11889016 -0.09550438 -0.122613795
-0.06072662 0.17229931 0.031783562 0.016340777 -0.12385484 -0.17483269 0.15924403 0.10313388
-0.010967949 -0.2370748 0.018155275 0.1823354 0.09775071 0.04092372 -0.05964267 -0.46748593
-0.2665051 0.12615152 0.23406799 0.24770802 -0.06552428 -0.2515969 0.20462598 -0.07380454
0.33816233 0.3571631 -0.1240021 -0.070338815 0.30510262 0.428794 0.3030053 -0.124862224
-0.18408252 -0.027915783 -0.028626848 0.09009823 -0.051710397 -0.008711892 -0.012087681 -0.14686336
0.053580772 0.199659 -0.034840472 0.17724608 -0.122370854 -0.041600905 0.12603945 -0.0073820194
0.033302613 0.052601837 -0.097175315 0.050971135 0.113113284 -0.19038366 -0.083817296 -0.18762307
-0.23955965 0.05721243 0.06502565 0.038713146 0.09319343 0.001006251 -0.01074953 0.035332542
00000000: 6eae 9e3d 898a 1d3d 0804 a33d e8fb 90be
00000010: 2e05 80be 0c18 4bbb d929 a73c 6f73 5f3d
00000020: fc87 d0be 97de 25be e2eb 01be 92c6 68bd
00000030: 4bde 69be a2dc a3be 245b c9bd a221 40be
00000040: ff20 dabc fe48 53be 0cc5 29bf 3a26 91be
00000050: ba1e 883d 1ff7 403e 870a 9cbe 7547 87bf
00000060: 9692 33bf 78c4 bfbc d431 98be 30c7 083c
00000070: 987f 173c 09f5 14be f87f 613d 9ce5 abbd
00000080: bbe5 0b3e 2638 0dbd 58b6 4ebe 217c e23d
00000090: 0a26 acbd 40c2 d03d 7390 fd3d dee1 24bc
000000a0: 6b8c 0e3d ebf4 37be 0e78 be3d d4c8 ddbc
000000b0: ca8b 87bd 8296 0fbd 1b19 053e e045 443e
000000c0: 2350 493d ccb9 8cbe 0918 4a3e d56f 283e
000000d0: db79 97bd e517 65bd 9c9f 4bbe 5217 c93e
000000e0: f834 aa3c d372 aebe 6b06 b2be f333 06bf
000000f0: a33b bd3b 7712 0ebd edd8 32be 0c4b fdbd
00000100: 45f9 93be 4a82 5cbe d884 30be 2f8f 483e
00000110: be08 06be 7377 96be c4fc ec3d 0df2 c9ba
00000120: 85cf 823e 60a7 793e dc91 323e 8955 263e
00000130: 9179 6bbe a5b9 183e bb27 3c3e feba babd
00000140: d3c2 9b3e 990d 45be e785 373d 42cb 493e
00000150: 24a7 9a3c bbda 9b3d 775a 8fbe 24b1 893d
00000160: 6be0 343d 6102 39bd fcf6 923c a02b d2bd
00000170: 3647 e03d 9632 a5bd fda2 2abe 7ff2 51be
00000180: b441 50bd 9fc2 313d 9949 4abc 8bba c4be
00000190: 70db e1bd 8055 86be ad2e c5bc 93b7 0e3e
000001a0: 31c4 c53c 3b93 afbd 5401 08be bfc7 a13b
000001b0: b15f 093e b079 013e b768 e7bc bee4 75bd
000001c0: bc91 063e 7ea4 4b3e 85f4 0b3e d97b 3b3d
000001d0: 41ca c93c 8324 223e aaea 353e 1e91 37bd
000001e0: e09c 72be fde8 bc3d 0685 9d3e 5847 613d
000001f0: 37cb 6ebe 2d53 98bd 7182 d93d 5c50 933d
00000200: 1385 44bd 88de b7bd f1b1 8abc 7a64 843d
00000210: ae74 ee3b e602 a93d ac7e 483b a83f 1dbd
00000220: cddf 91bd bcae af3d 02a7 543d b2ef 70bd
00000230: 18d8 2fbe b368 5a3e 1db8 6f3e 8958 33bc
00000240: b14e b9be a526 96bd b679 593e 9159 3b3e
00000250: f673 1cbe b913 e8be 362f 8ebd ae86 ea3d
00000260: ae60 38be 3f74 31be df3d 15bf 23ee 35bc
00000270: beb3 2e3e 2195 1c3e 189a 623e fc0f dbbe
00000280: cb27 64be f8a2 f73d 271e 153e 4b9a f53e
00000290: 7ab9 cebe 7dba e0be 8679 583d 4f36 ef3d
000002a0: 7bba 003f 418f 35be 6eb2 05bf ffbf 973d
000002b0: e391 46bd 8a2e 923e 00c2 c5bd b8f7 7f3d
000002c0: 8441 933d 1a8f 7dbd 794e 3cbe 74ac f1bd
000002d0: cb90 223e e506 463d 4721 e83d 5309 e73d
000002e0: e33b 46bd 7c96 1ebd 3158 e3bd 47b0 25bd
000002f0: dff1 653e af7c f33d cd97 c3bd f11c fbbd
00000300: 7abc 78bd 3b6f 303e 7b2f 023d 18dd 853c
00000310: 9ba7 fdbd 5707 33be de10 233e db37 d33d
00000320: eab2 33bc bdc3 72be 5fba 943c 22b6 3a3e
00000330: 8631 c83d a19f 273d df4b 74bd 515a efbe
00000340: 5b73 88be dd2d 013e 85af 6f3e 2ca7 7d3e
00000350: 9831 86bd 4fd1 80be 7989 513e d626 97bd
00000360: 9d23 ad3e 15de b63e d0f4 fdbd cc0d 90bd
00000370: 6936 9c3e e38a db3e 8323 9b3e c4b7 ffbd
00000380: 2180 3cbe a4af e4bc da82 eabc 6c85 b83d
00000390: 48ce 53bd 53bc 0ebc 690b 46bc 5963 16be
000003a0: 8377 5b3d 6973 4c3e e2b4 0ebd ff7f 353e
000003b0: 929d fabd b665 2abd 7c10 013e dee4 f1bb
000003c0: 5268 083d 0675 573d da03 c7bd 1cc7 503d
000003d0: f0a7 e73d eff3 42be 67a8 abbd 4320 40be
000003e0: 204f 75be 9557 6a3d 2b2c 853d ad91 1e3d
000003f0: 32dc be3d 2ee4 833a cc1e 30bc dbb8 103d

c3.bias f4 [16]
-0.016574904 0.09999338 0.17576613 0.39680257 0.06789611 0.32066938 0.5843785 0.06679529
0.016274177 0.08776989 0.26686487 0.094008915 0.08209014 -0.044611987 0.108260125 0.04664631
00000000: 18c8 87bc 54c9 cc3d 09fc 333e b529 cb3e
00000010: 1e0d 8b3d c72e a43e d499 153f f8cb 883d
00000020: 6c51 853c b3c0 b33d 83a2 883e bf87 c03d
00000030: e01e a83d 0fbb 36bd 7cb7 dd3d 3310 3f3d

f5.weight f4 [120, 400]
-0.0017813307 -0.0062202867 0.085704505 0.045012143 -0.15754479 0.044181615 -0.062761985 0.047031563
0.02682364 0.037703823 0.036761686 -0.04201437 -0.07373112 0.16707507 -0.052778505 0.13747373
-0.034104344 0.066358425 0.011039792 0.0090991035 -0.03850269 0.11835342 -0.159062 -0.13096356
-0.12829658 -0.053673342 -0.23829839 -0.16815992 -0.23907292 0.05490501 0.14379375 -0.1702489
-0.016361317 -0.051574185 -0.19145465 0.007766651 -0.017323975 -0.021214748 0.077909134 0.1291932
0.08591607 -0.035851527 0.09892467 0.15770462 -0.004958149 -0.0639468 -0.23422381 -0.3617043
0.18194965 0.22912866 -0.21282005 0.10363392 -0.14328223 0.17247964 -0.12923676 0.1570574
-0.166819 -0.1971866 0.035864197 0.036806986 -0.06355985 -0.021737887 -0.10284473 0.045560483
0.06900531 -0.07372112 -0.011037589 0.074230306 0.089504726 -0.0813473 -0.37948006 0.1585989
0.12352871 -0.043658923 -0.11740601 -0.021812245 0.19273861 0.06291474 0.17967819 0.17674498
-0.17140664 -0.26132026 -0.08102357 -0.14571106 0.049546335 -0.098157935 -0.21820475 0.031757317
0.06164525 -0.17564139 -0.0903276 0.09424431 -0.02997454 -0.03486893 -0.15025799 -0.06601444
0.11922296 0.20962895 0.02340488 -0.20401251 0.11997912 0.019818604 -0.04037392 0.2049586
-0.10112643 -0.087453224 0.12673181 -0.051462427 0.1083817 -0.012550618 -0.018974181 0.047033798
-0.15319785 -0.12818462 -0.07916293 0.23444043 -0.093751624 -0.04583949 0.010150295 0.04371307
0.17029686 0.14286418 0.19437334 -0.21812676 -0.2666762 -0.12248272 -0.32725513 0.24586356
0.17229544 0.148853 0.15922554 0.038775094 -0.004854025 -0.13574708 -0.015039175 0.07636081
-0.05525636 -0.012817133 0.14218205 -0.091686375 0.01119783 0.061023194 0.04964011 0.28834927
0.08439727 -0.042886317 -0.19525865 0.06376304 -0.1782866 -0.107911244 -0.001196811 0.56998765
0.33591273 0.22910182 -0.020944966 -0.20737119 0.107880846 -0.06372894 0.08958116 0.005083365
-0.39367333 -0.113565065 -0.10980544 -0.042553406 0.18471591 -0.7679135 -0.20570302 0.13547216
-0.033018976 -0.040576812 0.13961177 -0.052124843 0.40898848 -0.128671 -0.2946912 -0.27526397
0.12608825 0.09772087 -0.0015772976 -0.0850096 -0.22120242 0.13428517 0.057668716 0.06700744
-0.12485506 -0.3106359 -0.07770553 -0.19637538 0.1102807 0.1352673 -0.28249127 -0.078095935
-0.024136715 0.18010618 -0.10793242 -0.23404568 -0.07255338 -0.059070818 -0.003377391 -0.09522967
-0.08023422 0.011784421 0.065240845 0.16483502 0.2650242 0.15193999 0.03741576 0.07783943
-0.060431648 -0.035144467 0.17109585 0.026438003 0.084978126 -0.0001938698 -0.1578195 0.08837991
-0.078884974 0.054663345 -0.07816253 -0.11035043 0.15284404 0.14846012 0.21007818 -0.14446563
-0.35982874 -0.3562516 -0.042556547 0.03845404 0.26878008 0.0988813 -0.34298632 -0.30778036
-0.24984737 0.052582677 0.024332749 -0.014962126 -0.10513533 0.015566435 -0.028439084 -0.12847777
0.06494835 -0.049368765 0.08631872 0.086572826 -0.18044032 0.0007416682 -0.06818145 0.17385592
0.056389157 -0.29527274 -0.060710933 0.307905 -0.06092172 0.25174874 -0.19330083 -0.008431014
00000000: 8a7b e9ba 8cd3 cbbb d885 af3d a75e 383d
00000010: 6c53 21be c8f7 343d 5b89 80bd 2ba4 403d
00000020: 40bd db3c 536f 1a3d 6c93 163d 4317 2cbd
00000030: 5700 97bd ba15 2b3e 462e 58bd eac5 0c3e
00000040: ffb0 0bbd ede6 873d 3ee0 343c 6814 153c
00000050: ffb4 1dbd 4763 f23d 26e1 22be 501b 06be
00000060: 2e60 03be 94d8 5bbd 7e04 74be 1d32 2cbe
00000070: 88cf 74be 13e4 603d ab3e 133e ba55 2ebe
00000080: 2b08 86bc 743f 53bd b00c 44be 647f fe3b
00000090: 02eb 8dbc 8dca adbc d38e 9f3d 394b 043e
000000a0: c4f4 af3d 0dd9 12bd 0499 ca3d 527d 213e
000000b0: f877 a2bb 8af6 82bd 5ed8 6fbe 4e31 b9be
000000c0: 0251 3a3e b4a0 6a3e 80ed 59be 053e d43d
000000d0: 94b8 12be 819e 303e a456 04be a8d3 203e
000000e0: 9ad2 2abe 49eb 49be 56e6 123d ecc2 163d
000000f0: ab2b 82bd a713 b2bc 42a0 d2bd a19d 3a3d
00000100: a852 8d3d 19fb 96bd 01d7 34bc 0f06 983d
00000110: 414e b73d 6a99 a6bd 364b c2be c067 223e
00000120: 9ffc fc3d b3d3 32bd 9072 f0bd 98af b2bc
00000130: 455d 453e 71d9 803d 8ffd 373e a3fc 343e
00000140: 3985 2fbe c5cb 85be afef a5bd 4835 15be
00000150: 19f1 4a3d 0707 c9bd 1171 5fbe f613 023d
00000160: bb7f 7c3d 56db 33be adfd b8bd 2903 c13d
00000170: 2b8d f5bc b9d2 0ebd 3bdd 19be 9432 87bd
00000180: 2b2b f43d f9a8 563e 97bb bf3c a8e8 50be
00000190: 9db7 f53d a05a a23c 205f 25bd abe0 513e
000001a0: 601b cfbd ad1a b3bd fcc5 013e 44ca 52bd
000001b0: 3af7 dd3d 1ba1 4dbc be6f 9bbc 83a6 403d
000001c0: e6df 1cbe d442 03be 2d20 a2bd 2711 703e
000001d0: da00 c0bd 30c2 3bbd 6c4d 263c 7a0c 333d
000001e0: 4d62 2e3e fd4a 123e ce09 473e 9f5c 5fbe
000001f0: c889 88be 38d8 fabd fc8d a7be a8c3 7b3e
00000200: 376e 303e ec6c 183e 050c 233e a2d2 1e3d
00000210: 830e 9fbb 4801 0bbe df66 76bc 0e63 9c3d
00000220: 7e54 62bd f4fe 51bc 2c98 113e 11c6 bbbd
00000230: 1a77 373c 75f3 793d 6e53 4b3d 84a2 933e
00000240: 7ad8 ac3d 90a9 2fbd e2f1 47be 3296 823d
00000250: c390 36be 9200 ddbd 50de 9cba b6ea 113f
00000260: c1fc ab3e ab99 6a3e c794 abbc 1d59 54be
00000270: a2f0 dc3d 5284 82bd 5476 b73d 5b92 a63b
00000280: 8d8f c9be cd94 e8bd ade1 e0bd 7b4c 2ebd
00000290: 2b26 3d3e fb95 44bf d0a3 52be 37b9 0a3e
000002a0: e83e 07bd df33 26bd 63f6 0e3e dc80 55bd
000002b0: f066 d13e 55c2 03be c4e1 96be 66ef 8cbe
000002c0: 471d 013e e121 c83d 53bd ceba 8319 aebd
000002d0: e382 62be 0d82 093e 0836 6c3d 323b 893d
000002e0: 02b4 ffbd ab0b 9fbe 1424 9fbd a116 49be
000002f0: d9da e13d 8383 0a3e b2a2 90be c3f0 9fbd
00000300: 5cba c5bc c16d 383e ac0b ddbd aca9 6fbe
00000310: de96 94bd 3ef4 71bd 3857 5dbb c607 c3bd
00000320: d751 a4bd 7213 413c fe9c 853d 83ca 283e
00000330: 40b1 873e 2896 1b3e 4541 193d 476a 9f3d
00000340: 2d87 77bd a5f3 0fbd c033 2f3e 8394 d83c
00000350: 0309 ae3d 8749 4bb9 6f9b 21be 8700 b53d
00000360: 728e a1bd ace6 5f3d ad13 a0bd 68ff e1bd
00000370: 2683 1c3e ee05 183e bc1e 573e ccee 13be
00000380: 793b b8be 9c66 b6be c64f 2ebd fc81 1d3d
00000390: 8b9d 893e 4782 ca3d e79b afbe 6395 9dbe
000003a0: fdd7 7fbe ef60 573d 7955 c73c b423 75bc
000003b0: 3151 d7bd 5c0a 7f3c 15f9 e8bc ad8f 03be
000003c0: a403 853d e736 4abd dec7 b03d 184d b13d
000003d0: 59c5 38be 836c 423a b7a2 8bbd 4907 323e
000003e0: 51f8 663d fd2d 97be 07ac 78bd b9a5 9d3e
000003f0: 0e89 79bd 36e5 803e a7f0 45be 3c22 0abc

f5.bias f4 [120]
0.19851846 0.10289307 0.10223091 0.0829219 -0.059316766 0.018993258 -0.050299603 -0.085423075
-0.015972221 -0.086751826 0.09760404 -0.0394189 -0.016376268 -0.018377021 0.20519869 0.0499834
0.0043597273 -0.020322202 0.10218667 -0.0063707014 0.066427134 0.114975706 0.005375914 0.04209193
0.15932262 0.14093336 -0.07071333 -0.0266004 0.14871733 -0.040774588 -0.031796064 -0.051353477
-0.057369966 -0.03760848 -0.09020285 0.26916933 0.13783845 -0.08170437 0.2253076 0.003311368
-0.033463646 -0.115776606 0.0006354252 -0.06450331 -0.17918724 0.03299836 0.0055669635 0.2723886
0.15026104 0.13214141 0.044292532 -0.052155685 -0.09942835 0.02615236 -0.08207127 0.011845974
-0.119345486 -0.079872474 -0.06383949 0.042488262 -0.028216587 -0.039899334 -0.014505805 0.20092903
0.1113534 0.0012269309 -0.048351847 0.017598739 0.016845388 -0.06833681 -0.07015016 0.00762975
-0.02269286 0.17355476 0.16448623 0.181916 -0.018664168 0.1475534 0.17687438 -0.02635498
0.050743252 -0.06693073 -0.032391652 -0.048536945 0.21293834 0.21851462 0.08639235 0.06678789
-0.05022553 -0.07063458 0.024231868 0.03225837 0.16605131 0.089458935 -0.0519894 0.21319659
0.028860103 -0.01494764 -0.014608079 0.016893174 -0.01641171 -0.046284605 -0.07978176 -0.033592273
0.24320476 0.16432679 -0.106047794 -0.0054145264 0.0053826296 0.047390826 -0.04920427 -0.070215724
-0.0023749063 0.41856584 -0.039572597 0.28046095 0.17993282 -0.06069502 0.1449153 0.24056306
00000000: 6c48 4b3e 9ab9 d23d 705e d13d f5d2 a93d
00000010: 23f6 72bd c097 9b3c f506 4ebd 4bf2 aebd
00000020: 2dd8 82bc f1aa b1bd a0e4 c73d b675 21bd
00000030: 8627 86bc 688b 96bc 9b1f 523e 65bb 4c3d
00000040: 0bdc 8e3b bf7a a6bc 3f47 d13d 51c1 d0bb
00000050: f30a 883d 6278 eb3d 6f28 b03b 9668 2c3d
00000060: 7825 233e d650 103e 26d2 90bd 15e9 d9bc
00000070: 5b49 183e 4103 27bd 973c 02bd 0658 52bd
00000080: c5fc 6abd 590b 1abd 46bc b8bd 90d0 893e
00000090: 8625 0d3e 9f54 a7bd 09b7 663e 8903 593b
000000a0: 2d11 09bd 491c edbd aa92 263a 501a 84bd
000000b0: dc7c 37be 4a29 073d 136b b63b 8576 8b3e
000000c0: 08de 193e 1450 073e 166c 353d 33a1 55bd
000000d0: 17a1 cbbd 793d d63c fb14 a8bd 9e15 423c
000000e0: 686b f4bd 2e94 a3bd 47be 82bd 2c08 2e3d
000000f0: 7926 e7bc 7c6d 23bd c2a9 6dbc 57c0 4d3e
00000100: 400d e43d f8d0 a03a 960c 46bd 3b2b 903c
00000110: 57ff 893c 2bf4 8bbd e3aa 8fbd fb02 fa3b
00000120: 60e6 b9bc 57b8 313e 146f 283e 3048 3a3e
00000130: 99e5 98bc 3d18 173e 8f1e 353e 66e6 d7bc
00000140: 28d8 4f3d fb12 89bd 1cad 04bd adce 46bd
00000150: 820c 5a3e 4cc2 5f3e 79ee b03d 17c8 883d
00000160: 49b9 4dbd dda8 90bd e981 c63c 5a21 043d
00000170: 5b09 2a3e 3f36 b73d d6f2 54bd 3550 5a3e
00000180: 066c ec3c f2e6 74bc b956 6fbc 8e63 8a3c
00000190: da71 86bc ed94 3dbd 9f64 a3bd 0d98 09bd
000001a0: ab0a 793e 4845 283e 962f d9bd 576c b1bb
000001b0: c560 b03b e21c 423d 6b8a 49bd 43cd 8fbd
000001c0: 51a4 1bbb 434e d63e e016 22bd 9498 8f3e
000001d0: 4f40 383e 579b 78bd ad64 143e 2a56 763e

f6.weight f4 [84, 120]
-0.0771171 -0.20931011 0.128084 -0.020232733 -0.055177584 0.03367 -0.0028490573 -0.18833196
0.066582866 -0.05597902 -0.1910877 0.05487943 0.019397395 0.04061909 -0.16335621 -0.18261564
-0.0056170723 -0.0079954825 0.017818475 -0.05297949 0.046599038 -0.12913704 0.07485196 -0.1114338
-0.040981244 -0.026983548 0.051024377 -0.14010935 -0.21685264 -0.061282575 -0.03430964 -0.060275584
-0.06277405 0.055177998 0.237726 -0.19266851 -0.17901872 -0.022918219 -0.05713922 -0.05658471
-0.025537051 -0.04713457 0.038381234 -0.065063216 -0.13199376 -0.107570745 -0.014063938 -0.015560859
-0.011724348 -0.124435745 -0.17092621 -0.08069251 0.008667506 -0.072732106 0.012963697 -0.08509025
0.089565836 0.0070636296 -0.008391485 0.06671388 0.06873135 -0.08749337 -0.09208166 -0.07942357
-0.16698457 -0.066192344 0.083800465 0.030169867 0.04193574 -0.21306081 0.055127382 -0.032113485
-0.1314017 -0.17056637 -0.20048138 -0.10822304 -0.026422026 0.01404893 -0.25819302 -0.026770428
-0.11497361 0.0887277 -0.005715415 0.035465855 -0.036961265 -0.06800646 -0.094441816 -0.22449557
0.08387031 0.040065363 0.01627996 0.08518948 -0.14187932 0.009054675 0.00704778 -0.18731704
0.010041691 0.042834878 0.0042565763 -0.09460064 0.009933447 -0.08092405 -0.07659859 0.09358757
0.03376318 -0.06381638 0.02417302 -0.01100073 -0.2311637 -0.14429596 0.0043089315 0.02180239
-0.19130027 -0.07015195 0.05356814 -0.17397353 0.028249832 0.05597408 -0.06981323 -0.06904488
-0.107400976 -0.24704608 -0.24264811 -0.3070433 0.039111782 -0.027115814 -0.012783859 0.17840938
-0.022928594 0.27204952 -0.19608837 0.10535072 0.053883348 0.07207782 -0.058000214 -0.34683788
0.20596021 0.054916505 0.18579537 -0.057025626 -0.0068064868 0.0008169392 0.029337374 -0.080321305
-0.039836764 0.07102975 0.0012642223 -0.1327913 0.4401553 -0.09678881 0.06701138 0.07074741
0.024586573 -0.07325561 0.09546376 -0.09701024 0.1611371 0.07177701 -0.2047511 0.059003156
-0.048518963 0.16760078 -0.14663172 -0.15384786 -0.06977863 -0.1527942 -0.05561945 0.026138777
0.14361954 0.15869378 0.03455656 0.005705448 -0.048403498 -0.048618536 0.05787654 0.17495866
0.13383712 -0.31628332 -0.06585409 0.003782847 -0.009115251 -0.050677948 -0.058969922 -0.04086195
0.1908719 -0.031237686 -0.011263444 0.30557874 0.043365378 0.03725407 0.036361907 -0.022119144
0.049721412 -0.14630638 -0.16677128 -0.2777177 0.19207685 -0.12415563 0.044725284 0.3559098
0.36918178 0.027401185 0.01441959 -0.009859122 -0.5312289 -0.12947229 -0.13046971 0.1866873
-0.092456624 -0.022269115 -0.11688773 0.079796486 -0.041822128 0.0792416 0.08556548 -0.07151637
0.08479349 -0.079156294 0.045799326 -0.04779955 0.03804997 0.04032293 -0.018417308 0.043361943
0.023573898 -0.26128134 0.104712956 0.09014725 -0.10824878 0.49156395 0.019631324 -0.0051603327
0.36537606 0.028169937 0.00019815905 -0.30643064 -0.017342212 0.0921059 0.004092013 0.12819614
-0.252111 0.20246896 -0.057988398 0.29825172 0.080248505 0.08270666 -0.007921662 0.05682015
0.00725914 0.13820276 -0.43631154 -0.23227057 0.014804258 -0.051342037 -0.108985215 -0.10625653
00000000: 92ef 9dbd 6455 56be 7428 033e 1ebf a5bc
00000010: e401 62bd 8ee9 093d 40b7 3abb 18da 40be
00000020: 995c 883d 424a 65bd 7eac 43be 41c9 603d
00000030: 49e7 9e3c 3460 263d da46 27be 98ff 3abe
00000040: 6b0f b8bb 7cff 02bc 0df8 913c 0601 59bd
00000050: a2de 3e3d 803c 04be fc4b 993d 6737 e4bd
00000060: f3db 27bd 9a0c ddbc f0fe 503d d378 0fbe
00000070: 9e0e 5ebe 7003 7bbd 4488 0cbd 88e3 76bd
00000080: ae8f 80bd 5302 623d 726e 733e e54a 45be
00000090: af50 37be fdbe bbbc d10a 6abd 5ec5 67bd
000000a0: 1433 d1bc 2e10 41bd a435 1d3d dd3f 85bd
000000b0: 5f29 07be 0d4e dcbd 6e6c 66bc f9f2 7ebc
000000c0: 7b17 40bc 2bd8 febd 4807 2fbe 1d42 a5bd
000000d0: 2802 0e3c 92f4 94bd b065 543c cc43 aebd
000000e0: 4b6e b73d 0576 e73b 707c 09bc 49a1 883d
000000f0: 06c3 8c3d b92f b3bd 4f95 bcbd d3a8 a2bd
00000100: 01fe 2abe da8f 87bd 949f ab3d cc26 f73c
00000110: cfc4 2b3d 9d2c 5abe 40cd 613d 6e89 03bd
00000120: 2b8e 06be f3a8 2ebe fe4a 4dbe 0ba4 ddbd
00000130: 0173 d8bc 7c2d 663c e031 84be a84d dbbc
00000140: 4977 ebbd deb6 b53d 6048 bbbb a544 113d
00000150: b264 17bd f946 8bbd b66a c1bd 2be2 65be
00000160: 32c4 ab3d 941b 243d 8d5d 853c d277 ae3d
00000170: d048 11be 0f5a 143c 10f1 e63b 0ad0 3fbe
00000180: e885 243c a073 2f3d c07a 8b3b fbbd c1bd
00000190: e6bf 223c 82bb a5bd b9df 9cbd d7aa bf3d
000001a0: 434b 0a3d 2ab2 82bd 7f06 c63c 683c 34bc
000001b0: 2db6 6cbe 52c2 13be f031 8d3b ed9a b23c
000001c0: 38e4 43be d3ab 8fbd 446a 5b3d 1e26 32be
000001d0: 316c e73c 1445 653d 3dfa 8ebd 6767 8dbd
000001e0: 0bf5 dbbd a6f9 7cbe bf78 78be c834 9dbe
000001f0: ad33 203d fc21 debc 6473 51bc f3b0 363e
00000200: bfd4 bbbc 134a 8b3e 64cb 48be 1ec2 d73d
00000210: c9b4 5c3d 899d 933d a291 6dbd bc94 b1be
00000220: 3ce7 523e 21f0 603d 2441 3e3e b493 69bd
00000230: f308 dfbb dd27 563a ef54 f03c 7f7f a4bd
00000240: e02b 23bd 0c78 913d 43b4 a53a 71fa 07be
00000250: 095c e13e 3639 c6bd 433d 893d 05e4 903d
00000260: c869 c93c 0a07 96bd 8182 c33d 4ead c6bd
00000270: 2001 253e d3ff 923d 46aa 51be 4bad 713d
00000280: d2bb 46bd 8a9f 2b3e a026 16be 4b8a 1dbe
00000290: 19e8 8ebd 1576 1cbe 38d1 63bd fd20 d63c
000002a0: 0011 133e 9f80 223e 2e8b 0d3d c4f4 ba3b
000002b0: bf42 46bd 3b24 47bd f30f 6d3d 5d28 333e
000002c0: 990c 093e e3ef a1be 82de 86bd a4e9 773b
000002d0: 2258 15bc ae93 4fbd 728a 71bd dc5e 27bd
000002e0: ec73 433e 2de6 ffbc 4f8a 38bc d174 9c3e
000002f0: e59f 313d b997 183d 39f0 143d 3533 b5bc
00000300: aea8 4b3d 57d1 15be 17c6 2abe 0431 8ebe
00000310: cbaf 443e 4f45 febd dc31 373d cf39 b63e
00000320: 6505 bd3e 7378 e03c 2540 6c3c 2888 21bc
00000330: 9efe 07bf 6294 04be da99 05be f52a 3f3e
00000340: e659 bdbd b86d b6bc d662 efbd 576c a33d
00000350: ae4d 2bbd 6c49 a23d f43c af3d 2d77 92bd
00000360: 36a8 ad3d b21c a2bd 1398 3b3d 76c9 43bd
00000370: 49da 1b3d a829 253d e5df 96bc 4b9c 313d
00000380: 0c1e c13c abc6 85be bf73 d63d 1f9f b83d
00000390: 89b1 ddbd 45ae fb3e dfd1 a03c 0218 a9bb
000003a0: 9212 bb3e a4c4 e63c eac8 4f39 7ae4 9cbe
000003b0: 4111 8ebc 05a2 bc3d 4b16 863b d945 033e
000003c0: b114 81be 0654 4f3e 3e85 6dbd 73b4 983e
000003d0: 5459 a43d 1c62 a93d dcc9 01bc 3fbc 683d
000003e0: 14de ed3b 0685 0d3e 3a64 dfbe 56d8 6dbe
000003f0: 8f8d 723c 074c 52bd a433 dfbd 069d d9bd

f6.bias f4 [84]
-0.0071602208 -0.08943134 0.08913007 0.1566012 0.17585629 0.075753674 -0.2710164 -0.06680777
0.16831079 0.13861017 0.1066615 -0.008239579 -0.10918476 0.28470594 -0.06551043 -0.04872989
0.17642105 -0.04242375 0.10510816 -0.038787887 -0.19148748 0.22229667 0.0035554657 0.06611576
0.03611751 0.24885158 0.05688958 0.064947575 -0.17466258 0.04940448 0.11708314 -0.15355362
0.1738386 -0.043964934 -0.18576783 0.2730657 0.2441368 0.14307015 0.038931075 0.120562114
0.023698214 0.13077097 0.22777502 0.1084833 -0.14010234 0.13654658 0.2918918 0.13363838
0.3164457 0.1666037 0.33305883 0.23093084 0.27239412 0.108137555 0.20632018 0.043727767
0.002651362 0.026336875 0.22019193 -0.07774803 0.27587318 0.00910047 0.055722356 -0.042650532
-0.06046459 0.20235062 0.20363474 0.06507742 0.07931553 -0.10108019 -0.036388326 -0.007173365
0.05847409 -0.018787995 0.16917123 0.041855574 -0.002352709 0.19938791 0.1796523 0.17612156
0.2002175 0.10533384 -0.10364832 0.1719729
00000000: 49a0 eabb c727 b7bd d389 b63d 115c 203e
00000010: ac13 343e be24 9b3d a9c2 8abe 83d2 88bd
00000020: aa59 2c3e d3ef 0d3e 5871 da3d 4dff 06bc
00000030: 429c dfbd fac4 913e 552a 86bd fe98 47bd
00000040: b8a7 343e 87c4 2dbd f242 d73d 0ce0 1ebd
00000050: 4b15 44be bda1 633e d102 693b b367 873d
00000060: f4ef 133d f3d2 7e3e 0c05 693d 3c03 853d
00000070: bfda 32be 5a5c 4a3d 49c9 ef3d 293d 1dbe
00000080: bf02 323e 9314 34bd ec39 3ebe 44cf 8b3e
00000090: fffe 793e fb80 123e 3176 1f3d 45e9 f63d
000000a0: c222 c23c d3e8 053e db3d 693e 7e2c de3d
000000b0: fd76 0fbe ded2 0b3e d872 953e 80d8 083e
000000c0: 2c05 a23e 299a 2a3e b086 aa3e 2279 6c3e
000000d0: 3e77 8b3e 3977 dd3d 9945 533e e31b 333d
000000e0: 79c2 2d3b 6ec0 d73c fe79 613e 5c3a 9fbd
000000f0: 403f 8d3e 231a 153c 203d 643d 53b2 2ebd
00000100: b8a9 77bd 0035 4f3e a085 503e 4f47 853d
00000110: 2e70 a23d 2103 cfbd ed0b 15bd 8c0e ebbb
00000120: 8782 6f3d 48e9 99bc 393b 2d3e c070 2b3d
00000130: e82f 1abb 582c 4c3e c6f6 373e 3659 343e
00000140: d105 4d3e 45b9 d73d 9245 d4bd aa19 303e

f7.weight f4 [10, 84]
-0.29832682 0.27599114 0.19630885 0.16495642 -0.0655306 0.03383374 -0.034927476 0.050280713
0.048217136 0.23989736 0.032946337 -0.17849748 -0.15874912 0.15438034 0.105570816 -0.03618644
-0.040422656 -0.34782043 -0.09183389 0.13745473 -0.019918945 -0.018232696 0.062306773 0.075750835
-0.023634505 -0.3082987 -0.11345633 -0.15447237 -0.070990965 -0.47668543 -0.0041463985 0.014083185
-0.013632532 -0.40956903 0.43626878 -0.27544314 0.12396964 0.005508855 -0.27669108 -0.22552891
-0.45509756 -0.3776457 0.16374303 0.07089605 0.005527629 0.16559224 -0.32246882 0.061565038
0.024081318 -0.061141536 -0.3512521 -0.20527257 -0.015401161 0.089829415 -0.20809214 -0.18639785
-0.23907211 -0.12011827 -0.12553176 -0.19831377 -0.03666091 -0.18094759 -0.09509164 -0.647971
0.026676413 -0.23148172 0.1323396 0.1701552 -0.093415625 -0.04984826 0.019959947 -0.49150884
0.24600512 -0.3746012 0.17782709 0.21812236 -0.1760573 0.13687256 -0.2312386 -0.2702094
0.095168576 -0.18733123 -0.047090136 -0.17079687 -0.30825236 -0.36840084 0.09515435 -0.09241818
-0.16472892 -0.11119708 -0.43980998 -0.0156823 -0.5172969 -0.22170408 -0.61618906 -0.35071173
-0.2787914 -0.54788303 -0.78174853 0.03697403 0.06673431 -0.3771449 0.3504066 0.042326197
-0.13773073 0.44243848 -0.5779738 0.199865 0.13388535 -0.1083715 -0.59812963 -0.17811805
-0.09948095 -0.53724766 -0.34549797 -0.2617879 -0.23273148 -0.94482183 -0.010346501 0.09286197
-0.40763006 -0.4873909 0.16956836 -0.0832685 0.27988005 0.1169321 -0.16865468 -0.42047098
-0.1351236 -0.48150244 -0.59803545 0.20513885 -0.00036336627 0.030606342 -0.09926224 0.089508936
0.056604594 -0.40943778 -0.2895766 0.305997 0.17237024 0.017510314 -0.7116883 0.045600526
-0.53489816 0.48409143 -0.020910805 -0.27962512 0.2476371 -0.2058145 -0.2953009 -0.59920233
-0.005936836 -0.05814206 -0.030554645 0.23417713 -0.10114086 -0.60872555 0.33726844 -0.036778055
-0.007508253 -0.31487933 0.14334705 0.19812009 -0.0054133 0.005070005 -0.09368561 0.34406933
0.13877499 -0.3856722 -0.57738996 0.016094284 0.09709872 0.3144308 -0.024181541 -0.12707989
-0.24194533 -0.44122776 -0.01166719 -0.19359995 -0.10377825 0.025302246 0.15708913 -0.03430827
0.03310484 -0.3473888 -0.5073495 -0.55091083 0.05166299 -0.0035206021 0.11040819 0.25228706
-0.22232126 -0.412076 0.15896314 0.14240523 -0.08012388 -0.11774415 -0.040384755 -0.008636985
-0.24784108 -0.1967903 -0.4213848 0.11289545 0.13044624 0.12468747 -0.0056543113 -0.36191005
-0.19875889 -0.25770634 -0.13626368 0.083179116 0.14455006 0.10466523 -0.018167788 -0.56345415
-0.0043521957 -0.1236398 0.25149155 -0.3075052 -0.0017452094 -0.0062240474 -0.29402104 -0.053625382
0.19393696 -0.07088196 0.041443065 -0.10284121 0.2139179 -0.6390839 0.010961327 -0.7232982
-0.29153633 -0.044509746 0.211367 -0.3653926 0.18575491 -0.093979456 -0.13491793 -0.64791733
-0.40678492 0.009300589 0.10137787 0.002546284 -0.24259289 -0.0980695 0.08778938 0.10606633
0.013778162 -0.008432397 -0.028507585 0.09147142 0.08497622 -0.07573424 0.03086582 -0.41503167
00000000: 4bbe 98be b64e 8d3e 3005 493e 56ea 283e
00000010: e834 86bd 3f95 0a3d 1d10 0fbd 26f3 4d3d
00000020: 557f 453d a7a7 753e bdf2 063d 0bc8 36be
00000030: 218f 22be e115 1e3e 8335 d83d 3c38 14bd
00000040: 3a92 25bd 8515 b2be 6813 bcbd efc0 0c3e
00000050: 0e2d a3bc bc5c 95bc 6335 7f3d 4123 9b3d
00000060: 269d c1bc 54d9 9dbe cb5b e8bd 012e 1ebe
00000070: b663 91bd 1d10 f4be 83de 87bb 29bd 663c
00000080: fc5a 5fbc 08b3 d1be 9f5e df3e e206 8dbe
00000090: cbe3 fd3d a083 b43b 74aa 8dbe 0df1 66be
000000a0: 8c02 e9be c75a c1be 41ac 273e f331 913d
000000b0: 1d21 b53b 0391 293e a21a a5be 9f2b 7c3d
000000c0: 2f46 c53c 8c6f 7abd 51d7 b3be f932 52be
000000d0: 2755 7cbc 7cf8 b73d 1b16 55be 14df 3ebe
000000e0: 52cf 74be 9100 f6bd 668b 00be c412 4bbe
000000f0: c029 16bd 534a 39be 68bf c2bd 6de1 25bf
00000100: 7e88 da3c 8b09 6dbe 0884 073e 2a3d 2e3e
00000110: b150 bfbd b02d 4cbd 0b83 a33c 0ca7 fbbe
00000120: c4e8 7b3e bacb bfbe 4e18 363e 785b 5f3e
00000130: 5d48 34be 5228 0c3e d0c9 6cbe e358 8abe
00000140: bee7 c23d c2d3 3fbe 96e1 40bd 60e5 2ebe
00000150: 41d3 9dbe 099f bcbe 49e0 c23d be45 bdbd
00000160: b3ae 28be 4bbb e3bd c62e e1be 2b78 80bc
00000170: 926d 04bf 6506 63be 91be 1dbf 7d90 b3be
00000180: bfbd 8ebe 1042 0cbf ac20 48bf 1572 173d
00000190: ffab 883d 2319 c1be 7e68 b33e 3c5e 2d3d
000001a0: 4909 0dbe 4c87 e23e 17f6 13bf 69a9 4c3e
000001b0: 3e19 093e e1f1 ddbd 061f 19bf 9464 36be
000001c0: abbc cbbd 1089 09bf 1ce5 b0be 1009 86be
000001d0: 2951 6ebe d8df 71bf 5f84 29bc 6b2e be3d
000001e0: e3b4 d0be 4d8b f9be 54a3 2d3e ad88 aabd
000001f0: 704c 8f3e 197a ef3d d0b3 2cbe f947 d7be
00000200: d75d 0abe 7d87 f6be da18 19bf eb0f 523e
00000210: 3282 beb9 27ba fa3c 004a cbbd 7650 b73d
00000220: 38da 673d d4a1 d1be 6243 94be a4ab 9c3e
00000230: d381 303e ca71 8f3c 3431 36bf 9ec7 3a3d
00000240: 16ef 08bf d5da f73e 234d abbc 062b 8fbe
00000250: 9494 7d3e 09c1 52be ae31 97be 5365 19bf
00000260: ca89 c2bb 5e26 6ebd bc4d fabc 21cc 6f3e
00000270: f022 cfbd 70d5 1bbf 73ae ac3e 96a4 16bd
00000280: cb07 f6bb dd37 a1be 92c9 123e fedf 4a3e
00000290: 0d62 b1bb 4922 a63b 3ede bfbd db29 b03e
000002a0: 081b 0e3e d476 c5be d4cf 13bf 29d8 833c
000002b0: b2db c63d 13fd a03e 5e18 c6bc 3b21 02be
000002c0: 84c0 77be 9be8 e1be be27 3fbc 113f 46be
000002d0: b189 d4bd a846 cf3c f9db 203e d486 0cbd
000002e0: f198 073d f2dc b1be a8e1 01bf 7e08 0dbf
000002f0: 929c 533d e7b9 66bb b01d e23d c52b 813e
00000300: 2fa8 63be a0fb d2be 3cc7 223e add2 113e
00000310: fd17 a4bd d823 f1bd 7c6a 25bd 2482 0dbc
00000320: 0dca 7dbe 6583 49be c0bf d7be bb35 e73d
00000330: b393 053e 255c ff3d cd47 b9bb 464c b9be
00000340: 7387 4bbe 16f2 83be b588 0bbe d059 aa3d
00000350: ee04 143e b95a d63d 9dd4 94bc 883e 10bf
00000360: dd9c 8ebb dd36 fdbd 80c3 803e 5271 9dbe
00000370: 83bf e4ba 18f3 cbbb ed89 96be 4aa6 5bbd
00000380: 6997 463e 902a 91bd 34c0 293d 6a9e d2bd
00000390: 4b0d 5b3e 019b 23bf 2397 333c 122a 39bf
000003a0: 4044 95be da4f 36bd 9770 583e bd14 bbbe
000003b0: 8936 3e3e 4d78 c0bd ed27 0abe e9dd 25bf
000003c0: 1d46 d0be 7f61 183c 339f cf3d 8fdf 263b
000003d0: 456a 78be a9d8 c8bd ebca b33d 4e39 d93d
000003e0: cdbd 613c 0928 0abc bd88 e9bc 5e55 bb3d
000003f0: 0308 ae3d 8e1a 9bbd 51da fc3c 087f d4be

f7.bias f4 [10]
-0.086971335 -0.1392001 0.1489045 0.21473964 -0.12903796 0.053159583 0.07089499 0.041975804
0.06514166 -0.20664425
00000000: 071e b2bd 798a 0ebe 6c7a 183e b5e4 5b3e
00000010: 8722 04be ddbd 593d 6431 913d d2ee 2b3d
00000020: fe68 853d 8d9a 53be
