weights/best_mode.pth (torch, 249799 bytes, 10 tensors)

c1.weight f4 [6, 1, 5, 5]
-0.29588938 8.138542 23.999018 0.16749418 -3.4369776 -1.3778675 3.8036482 24.704054
13.353888 -0.8190701 -0.63065255 -1.626186 -3.7141862 -0.852098 1.1407096 -0.27971348
-1.2849092 -0.364227 1.0088288 0.6975974 -4.425037 -1.6350886 -1.2181692 1.62064
0.6110018 0.75378466 -2.0007746 -2.126707 0.3696144 1.4301437 0.9324269 -1.6914535
-2.0592616 1.0482385 1.2168697 1.1262476 -0.10681587 -1.705273 0.48390517 0.30775374
0.33251387 -0.654897 -1.1701434 0.07631351 0.1289254 0.71775997 -0.22290537 -0.35680342
0.3348785 0.43148407 0.39747003 0.062363937 -0.9370325 0.11942312 0.6171323 0.31502223
1.5000505 -0.68403685 -1.7324169 0.038593967 1.0852535 2.7885013 0.57163495 -2.603039
-1.6098223 -0.40693438 3.4888384 1.6510313 -2.1423154 -1.2207035 -0.73519206 2.319357
0.82276726 -3.4920585 -1.696622 -1.4741108 -1.2491275 -0.30344036 -2.039297 -0.82118994
-1.1463985 0.15198182 0.35703632 -0.64362824 0.87224483 -0.84280074 0.20237046 0.1300397
-0.05083117 0.84605163 0.34072337 0.88646793 0.33034375 0.14023909 0.79585046 1.4624472
2.513483 2.1553206 1.0885271 -0.15184063 1.2356273 -1.4273871 2.3494763 -0.34607822
-0.20087281 3.388074 8.39143 18.190163 18.844856 0.8583755 0.80015814 -0.56638426
7.2276573 1.3352358 1.504792 0.96171635 -3.4060655 -3.967062 0.56073797 2.3890603
-2.0581048 -3.9984734 0.92319334 1.3714722 0.44218662 -5.3126335 2.347319 6.604839
0.773968 0.32501236 4.1697006 12.007528 10.152356 -1.610632 1.8711581 2.2656116
3.3449898 19.47114 23.303234 4.5437446 2.7249296 -1.1871637 1.8027064 3.61138
0.6462202 0.8746866 -0.52619886 -4.057486 -2.3416953 -0.4580153
00000000: d07e 97be 7837 0241 fdfd bf41 9883 2b3e
00000010: 71f7 5bc0 f65d b0bf f96e 7340 e7a1 c541
00000020: 86a9 5541 94ae 51bf 7272 21bf dd26 d0bf
00000030: 3ab5 6dc0 1823 5abf c602 923f 9b36 8fbe
00000040: e877 a4bf f67b babe 4d21 813f be95 323f
00000050: e799 8dc0 954a d1bf f8ec 9bbf 2271 cf3f
00000060: 9d6a 1c3f 08f8 403f b10c 00c0 f81b 08c0
00000070: 193e bd3e f30e b73f 88b3 6e3f 8c81 d8bf
00000080: f1ca 03c0 ae2c 863f 63c2 9b3f e228 903f
00000090: 47c2 dabd 6346 dabf 6bc2 f73e e691 9d3e
000000a0: 423f aa3e 54a7 27bf 42c7 95bf 424a 9c3d
000000b0: 0505 043e 1ebf 373f 4e41 64be f0ae b6be
000000c0: 3275 ab3e 7beb dc3e 3181 cb3e 5471 7f3d
000000d0: 5de1 6fbf 1c94 f43d 62fc 1d3f 984a a13e
000000e0: a801 c03f 0a1d 2fbf d6bf ddbf b514 1e3d
000000f0: 96e9 8a3f ce76 3240 ab56 123f 3198 26c0
00000100: a80e cebf b459 d0be 2149 5f40 fe54 d33f
00000110: b21b 09c0 0340 9cbf 8c35 3cbf 5870 1440
00000120: e0a0 523f e37d 5fc0 e92a d9bf aaaf bcbf
00000130: 69e3 9fbf 895c 9bbe d883 02c0 8139 52bf
00000140: 30bd 92bf 1fa1 1b3e 77cd b63e d2c4 24bf
00000150: 704b 5f3f cac1 57bf 343a 4f3e 2129 053e
00000160: 5834 50bd d796 583f 4b73 ae3e 90ef 623f
00000170: d122 a93e d69a 0f3e dbbc 4b3f 7831 bb3f
00000180: e8dc 2040 c6f0 0940 db54 8b3f 1c7c 1bbe
00000190: 0929 9e3f 9fb4 b6bf d25d 1640 2a31 b1be
000001a0: 9ab1 4dbe 34d6 5840 4c43 0641 7485 9141
000001b0: 44c2 9641 7fbe 5b3f 2ad7 4c3f 8ffe 10bf
000001c0: f848 e740 02e9 aa3f 069d c03f 0b33 763f
000001d0: fafc 59c0 58e4 7dc0 868c 0f3f 5de6 1840
000001e0: fdb7 03c0 fde6 7fc0 6656 6c3f 678c af3f
000001f0: 4966 e23e 1801 aac0 793a 1640 d75a d340
00000200: c422 463f 0568 a63e 306e 8540 d61e 4041
00000210: 0d70 2241 3029 cebf 1c82 ef3f c8ff 1040
00000220: 5014 5640 e5c4 9b41 066d ba41 5b66 9140
00000230: 3f65 2e40 fbf4 97bf 15bf e63f da20 6740
00000240: b06e 253f 76eb 5f3f f8b4 06bf edd6 81c0
00000250: 56de 15c0 fb80 eabe

c1.bias f4 [6]
0.5490621 -0.801497 -0.6595968 0.48729962 -0.640528 -1.2576352
00000000: 558f 0c3f e82e 4dbf 56db 28bf 567f f93e
00000010: a5f9 23bf 31fa a0bf

c3.weight f4 [16, 6, 5, 5]
-0.34585956 -0.23250803 -0.3772542 -0.29341438 -0.30862895 -0.33106035 -0.29151288 -0.41882557
-0.31595767 -0.39780983 -0.34946996 -0.32053983 -0.4277012 -0.31055257 -0.4494604 -0.47415003
-0.49215728 -0.36920294 -0.48798326 -0.36159337 -0.31792238 -0.4496682 -0.7043964 -0.6149182
-0.46293607 -0.2893092 -0.24714532 -0.24602617 -0.24075218 -0.27970138 -0.31734326 -0.18965891
-0.30286655 -0.21508406 -0.18929662 -0.30646527 -0.27725092 -0.17560007 -0.29577944 -0.28888187
-0.35854098 -0.22501175 -0.27951747 -0.21751024 -0.24950983 -0.42011294 -0.27512744 -0.21096975
-0.2673352 -0.18643051 -0.3427986 -0.37267962 -0.24295953 -0.35334757 -0.30295482 -0.24935634
-0.28085643 -0.34451166 -0.30695012 -0.35285845 -0.39929003 -0.3266054 -0.36761147 -0.39054757
-0.39088714 -0.39742482 -0.2457054 -0.30607978 -0.29406732 -0.34381247 -0.36174703 -0.4278444
-0.4467403 -0.4084137 -0.24222751 -0.3024579 -0.3711885 -0.3164903 -0.29538572 -0.36611667
-0.36454526 -0.3643482 -0.22179852 -0.27737606 -0.25545546 -0.21007305 -0.31076625 -0.3303264
-0.33769187 -0.25758263 -0.18637444 -0.2121785 -0.36230016 -0.28702274 -0.3598072 -0.26098529
-0.22663417 -0.31244534 -0.2130405 -0.2258087 -0.2954163 -0.33435965 -0.28518397 -0.35005802
-0.35381946 -0.34528163 -0.37085444 -0.4257862 -0.39566526 -0.38259965 -0.44880977 -0.41006032
-0.31613195 -0.42266947 -0.36736178 -0.3949091 -0.44276714 -0.4479927 -0.43775818 -0.5197154
-0.2780562 -0.48683986 -0.5857252 -0.6494811 -0.45195606 -0.27675402 -0.35499814 -0.33480534
-0.23579487 -0.35249478 -0.4083562 -0.41880623 -0.33225486 -0.32467008 -0.28699696 -0.30438015
-0.42149234 -0.28831023 -0.41931224 -0.4351966 -0.30900946 -0.40997064 -0.5062944 -0.5402664
-0.53590006 -0.21040279 -0.3697471 -0.41436985 -0.4648261 -0.29805776 0.6432865 0.42658845
-0.37407717 -0.83196855 -1.2589834 -0.121064104 -0.34827796 -0.24749973 -0.98609614 -1.4910742
0.36300543 -0.088367485 0.15029514 0.37447795 0.4933763 0.26452386 -0.41112557 -0.16798046
0.279038 0.7282392 -0.05430465 -0.04826256 0.20070788 0.18453977 0.83068216 0.51345646
0.9443642 0.35577035 1.8218547 0.8404438 0.16258644 0.64085364 2.333076 1.4306029
0.78408015 -0.8859085 0.26435974 0.6902779 -0.5580593 0.6457284 0.14588597 0.63329566
0.89020824 0.13835703 0.7069678 0.42269036 1.0965976 1.0105966 -0.016773846 0.43456048
-0.14506963 1.6525182 1.2048281 0.12118546 -0.014831101 -0.32326847 -1.2047985 -0.3107809
0.5211333 -0.98560834 0.86316955 -0.557254 -0.97890705 -0.10149874 -0.5370106 1.2799377
0.63895816 -0.26224613 -0.060209576 -0.6419016 -0.2163346 -0.78078204 0.43466663 0.85424376
0.75470465 -0.092153266 -0.8657998 -0.8243004 -0.35744765 0.018328695 0.03909972 0.040758133
0.117580056 0.29876485 0.34547767 -0.25294346 -0.1286206 -0.080992244 0.0012525253 0.29106694
-0.45604014 0.44035074 0.87343365 0.6439496 0.74933875 -0.5818615 0.52741694 0.5381576
0.16996026 0.16720255 -0.13685459 -0.112296775 0.25041994 -0.7126654 -1.2874941 -0.01848069
00000000: 8114 b1be 9616 6ebe 7627 c1be 693a 96be
00000010: 9d04 9ebe be80 a9be 2d41 95be 4e70 d6be
00000020: 34c5 a1be bbad cbbe baed b2be cc1d a4be
00000030: a7fb dabe bf00 9fbe ac1f e6be cbc3 f2be
00000040: 0afc fbbe 2b08 bdbe f1d8 f9be c422 b9be
00000050: b9c6 a2be e93a e6be 5353 34bf 476b 1dbf
00000060: f505 edbe 5620 94be aa13 7dbe 49ee 7bbe
00000070: bd87 76be 0535 8fbe d17a a2be f235 42be
00000080: 5311 9bbe ff3e 5cbe f9d6 41be 04e9 9cbe
00000090: d5f3 8dbe 81d0 33be 6770 97be 53e8 93be
000000a0: af92 b7be 7b69 66be ea1c 8fbe 01bb 5ebe
000000b0: 817f 7fbe 0b19 d7be 81dd 8cbe 7408 58be
000000c0: 29e0 88be a4e7 3ebe 4c83 afbe ddcf bebe
000000d0: 62ca 78be f9e9 b4be e51c 9bbe 4557 7fbe
000000e0: 6acc 8fbe d563 b0be 9128 9dbe dda9 b4be
000000f0: be6f ccbe d338 a7be 9237 bcbe daf5 c7be
00000100: 5c22 c8be 447b cbbe 329a 7bbe 7db6 9cbe
00000110: fe8f 96be 3008 b0be e836 b9be 6c0e dbbe
00000120: 25bb e4be 9a1b d1be 7d0a 78be c3db 9abe
00000130: 6b0c bebe 040b a2be cc3c 97be a573 bbbe
00000140: ada5 babe d98b babe 271f 63be 3c04 8ebe
00000150: 0fcb 82be 641d 57be c11c 9fbe 8b20 a9be
00000160: f3e5 acbe dfe1 83be f1d8 3ebe 5245 59be
00000170: 687f b9be a5f4 92be a638 b8be dd9f 85be
00000180: ca12 68be d6f8 9fbe 4a27 5abe 653a 67be
00000190: ce40 97be 3031 abbe a203 92be ce3a b3be
000001a0: d327 b5be c1c8 b0be a2e0 bdbe a600 dabe
000001b0: a394 cabe 1ae4 c3be 65ca e5be 6df3 d1be
000001c0: 0cdc a1be 2268 d8be d816 bcbe 8731 cabe
000001d0: 60b2 e2be 4d5f e5be d721 e0be 120c 05bf
000001e0: 625d 8ebe 1343 f9be 16f2 15bf 6544 26bf
000001f0: c966 e7be b4b2 8dbe 51c2 b5be 9b6b abbe
00000200: 3674 71be 327a b4be 1014 d1be c56d d6be
00000210: 4f1d aabe 283b a6be 44f1 92be b7d7 9bbe
00000220: d8cd d7be 669d 93be 18b0 d6be 17d2 debe
00000230: 7d36 9ebe ace7 d1be 839c 01bf e64e 0abf
00000240: bf30 09bf d473 57be 7e4f bdbe 4928 d4be
00000250: b0fd edbe 079b 98be 6dae 243f cd69 da3e
00000260: 0b87 bfbe e4fb 54bf 5e26 a1bf 75f0 f7bd
00000270: 7d51 b2be 9270 7dbe cc70 7cbf 85db bebf
00000280: d9db b93e 03fa b4bd f8e6 193e 93bb bf3e
00000290: d29b fc3e ac6f 873e 0d7f d2be 1203 2cbe
000002a0: 12de 8e3e e26d 3a3f 8d6e 5ebd f6ae 45bd
000002b0: 5e86 4d3e fef7 3c3e 96a7 543f e271 033f
000002c0: dac1 713f 8827 b63e 8932 e93f 5327 573f
000002d0: 0f7d 263e fc0e 243f 1e51 1540 ff1d b73f
000002e0: 7ab9 483f e6ca 62bf 295a 873e 0db6 303f
000002f0: f9dc 0ebf 754e 253f 2263 153e aa1f 223f
00000300: b0e4 633f 77ad 0d3e d7fb 343f df6a d83e
00000310: 4f5d 8c3f 3b5b 813f 4e69 89bc b67e de3e
00000320: 228d 14be b785 d33f cf37 9a3f 1530 f83d
00000330: 25fe 72bc 7283 a5be d636 9abf ad1e 9fbe
00000340: fe68 053f d450 7cbf aef8 5c3f 33a8 0ebf
00000350: a799 7abf 92de cfbd 8779 09bf 00d5 a33f
00000360: c392 233f 2045 86be 519e 76bd aa53 24bf
00000370: d186 5dbe 55e1 47bf a08c de3e b8af 5a3f
00000380: 5334 413f daba bcbd 0ea5 5dbf 5a05 53bf
00000390: 6103 b7be 0f26 963c 0727 203d 00f2 263d
000003a0: d0cd f03d b5f7 983e 73e2 b03e ce81 81be
000003b0: 1eb5 03be 43df a5bd c62b a43a ba06 953e
000003c0: 187e e9be a775 e13e 5999 5f3f e2d9 243f
000003d0: aad4 3f3f e0f4 14bf cc04 073f b2c4 093f
000003e0: 100a 2e3e 2537 2b3e 9c23 0cbe dafb e5bd
000003f0: 0b37 803e 3d71 36bf 9bcc a4bf d164 97bc

c3.bias f4 [16]
-0.24121107 0.37379768 -0.3837507 -0.24269088 -0.27288732 -0.33823532 -0.27382573 -0.22052611
-0.23773283 -0.21653554 -0.20645633 -0.21170102 0.23430812 -0.29470798 -0.14834188 -0.3202494
00000000: 0900 77be 6962 bf3e f97a c4be f583 78be
00000010: e3b7 8bbe 2e2d adbe e332 8cbe 99d1 61be
00000020: 3c70 73be 7ebb 5dbe 4a69 53be 27c8 58be
00000030: 78ee 6f3e f7e3 96be efe6 17be bbf7 a3be

f5.weight f4 [120, 400]
-0.56404066 -0.21023366 -0.26794872 -0.5879605 -0.9115435 -0.43815064 -0.15884115 -0.13812971
-0.2530428 -0.5785706 -0.19991319 -0.07760461 -0.13817133 -0.1459432 -0.4122518 -0.22028343
-0.1549642 -0.08586173 -0.14540984 -0.39124194 -0.2600234 -0.20811282 -0.15087956 -0.28365374
-0.4825246 -0.08632597 0.2890462 -4.536439 -0.36871022 -0.45152068 0.58637065 0.4485984
-1.6265137 -2.1343026 1.1822273 0.42970425 0.7433965 -2.0141861 -0.0047734263 0.7491585
1.7531196 -1.0949242 -2.7512596 1.4869707 1.550896 0.33000216 0.6605399 -2.2340329
-1.2403958 3.3024142 -0.121622644 -0.08952936 -0.0494738 -0.08630551 -0.17724112 -0.100422844
-0.120230846 -0.02746943 -0.029657952 -0.045756854 -0.048100464 -0.035033558 -0.03506927 -0.098452605
-0.032581925 0.029555025 -0.07445608 -0.08415177 -0.053269155 0.06997733 0.045227356 -0.12988949
-0.11502095 -0.06965761 0.042967327 -0.5370308 -0.5031841 -0.33035335 -0.49279016 -0.47515538
-0.5263549 -0.46854454 0.079771556 -0.3560267 -0.49472615 -0.39252642 -0.18775225 0.013692397
-0.3281559 -0.48607206 -0.18090883 -0.015324547 0.1729207 0.05771773 -0.29388458 0.058737177
-0.0842459 0.13440533 0.1313544 -0.33921444 -0.18793684 -0.089131854 -0.044930253 -0.08514526
-0.2295567 -0.14956462 -0.0092375185 -0.017667778 -0.0070410706 -0.0875892 0.038083035 0.020418763
-0.07887955 -0.05150117 -0.06568231 0.07419175 0.026845366 -0.063198194 -0.044838563 0.0354283
0.12754394 0.014330462 -0.03519875 -0.05701666 0.040809106 -0.3949393 -0.09852946 -0.092844225
-0.16286781 -0.5570153 -0.26615262 -0.109997414 -0.05355241 -0.09310503 -0.28251308 -0.13088886
-0.03138832 -0.10098355 -0.07675868 -0.26634863 -0.06992632 -0.020137182 -0.08535767 -0.06952485
-0.1618308 -0.033625286 -0.13494222 -0.08327594 -0.11368493 -0.07450543 -0.2439341 -0.1779206
-0.16625538 0.050380502 0.17123614 -0.14786749 -0.070690535 -0.1275982 -0.046379503 0.2674104
0.006306923 -0.05593749 -0.06925818 0.038284168 0.28474554 0.01845739 -0.03351668 -0.04034425
-0.013281598 0.2250792 0.031648077 -0.052799296 -0.04107826 0.003427182 0.23796037 -0.2371139
-0.064373605 -0.11021703 -0.17922099 -0.42923358 -0.2000139 -0.094278514 -0.021004682 -0.12964793
-0.26540905 -0.11812972 -0.0621785 -0.087258525 -0.102923796 -0.1356151 -0.08350645 -0.115226336
-0.051561356 -0.030427238 -0.07576022 -0.13838466 -0.07733268 -0.03413774 -0.075051054 -0.058368567
-0.10256692 0.0070941 0.072734796 0.059118524 -0.014492537 -0.06568395 0.0911012 0.038166694
0.10523697 0.07304059 0.005017189 -0.0044315793 0.108449765 0.112064585 0.10323868 0.06779231
0.019682111 0.04607356 0.054676037 0.14350407 0.07717773 0.07342847 0.0653326 0.05359034
0.036367152 -0.09294823 -0.114156686 -0.100955844 -0.082165934 -0.21284892 -0.03558797 -0.039869033
-0.09339808 -0.037586413 -0.02663328 0.009175486 -0.0034542023 -0.08157465 -0.03724218 -0.009650732
0.028471155 -0.063887246 -0.05167774 -0.048934303 0.022411417 -0.051728636 -0.095078416 -0.079855144
-0.09792179 -0.08006684 -0.4001651 -0.16036843 -0.19395365 -0.18686019 -0.37619665 -0.14270805
00000000: f864 10bf 7e47 57be 9330 89be 9484 16bf
00000010: ea5a 69bf 4855 e0be 41a7 22be e071 0dbe
00000020: d38e 81be 341d 14bf 0bb6 4cbe 2aef 9ebd
00000030: c97c 0dbe 2272 15be ab12 d3be fb91 61be
00000040: efae 1ebe 46d8 afbd 51e6 14be dd50 c8be
00000050: c921 85be 871b 55be 2c80 1abe 103b 91be
00000060: 770d f7be accb b0bd ddfd 933e 822a 91c0
00000070: 96c7 bcbe b82d e7be 631c 163f b1ae e53e
00000080: 9a31 d0bf 6a98 08c0 3953 973f 3202 dc3e
00000090: 3c4f 3e3f 6de8 00c0 676a 9cbb dac8 3f3f
000000a0: 3966 e03f 7a26 8cbf a314 30c0 0e55 be3f
000000b0: c383 c63f 0bf6 a83e 2519 293f 65fa 0ec0
000000c0: 4ac5 9ebf c15a 5340 4b15 f9bd 2b5b b7bd
000000d0: 0aa5 4abd f1c0 b0bd b27e 35be 7eaa cdbd
000000e0: 973b f6bd 9207 e1bc 3cf5 f2bc 8a6b 3bbd
000000f0: fe04 45bd 597f 0fbd cba4 0fbd 85a1 c9bd
00000100: a074 05bd 611d f23c 6e7c 98bd c357 acbd
00000110: c230 5abd 4650 8f3d 5240 393d c001 05be
00000120: 1b90 ebbd a6a8 8ebd 82fe 2f3d da7a 09bf
00000130: acd0 00bf 1324 a9be fe4e fcbe 9147 f3be
00000140: 32bf 06bf 12e5 efbe 455f a33d 2249 b6be
00000150: bf4c fdbe 39f9 c8be 2042 40be 1356 603c
00000160: 0d04 a8be 70de f8be 2a40 39be cf13 7bbc
00000170: 2012 313e 6d69 6c3d 0a78 96be 6596 703d
00000180: 1d89 acbd 8da1 093e c581 063e 84ad adbe
00000190: 8472 40be c38a b6bd c908 38bd a360 aebd
000001a0: e910 6bbe 7827 19be f658 17bc 04bc 90bc
000001b0: c8b8 e6bb f761 b3bd f5fc 1b3d 4045 a73c
000001c0: 9a8b a1bd e4f2 52bd 7284 86bd d8f1 973d
000001d0: d0ea db3c 0e6e 81bd a4a8 37bd 441d 113d
000001e0: e19a 023e 50ca 6a3c 912c 10bd 4d8a 69bd
000001f0: 7327 273d 7c35 cabe d0c9 c9bd 1d25 bebd
00000200: d2c6 26be 8e98 0ebf 2845 88be 5346 e1bd
00000210: c659 5bbd daad bebd 8ea5 90be bb07 06be
00000220: 0a91 00bd 77d0 cebd a833 9dbd d95e 88be
00000230: 8835 8fbd bbf6 a4bc 01d0 aebd 0b63 8ebd
00000240: f9b6 25be abba 09bd 4b2e 0abe 938c aabd
00000250: a5d3 e8bd 4e96 98bd dcc9 79be d130 36be
00000260: da3e 2abe c95b 4e3d 8758 2f3e 936a 17be
00000270: 33c6 90bd 1aa9 02be 6ff8 3dbd 04ea 883e
00000280: 4eaa ce3b b61e 65bd 3cd7 8dbd dccf 1c3d
00000290: 2bca 913e f433 973c c948 09bd 0340 25bd
000002a0: 0f9b 59bc 297b 663e 6aa1 013d 1344 58bd
000002b0: ad41 28bd 939a 603b e2ab 733e fccd 72be
000002c0: 4fd6 83bd 77b9 e1bd b585 37be 81c4 dbbe
000002d0: 72d0 4cbe 1815 c1bd 0312 acbc 6dc2 04be
000002e0: b2e3 87be ffed f1bd e2ae 7ebd 99b4 b2bd
000002f0: b6c9 d2bd afde 0abe 6e05 abbd c9fb ebbd
00000300: 0032 53bd 8b42 f9bc 2d28 9bbd b5b4 0dbe
00000310: 9960 9ebd 04d4 0bbd 5eb4 99bd e113 6fbd
00000320: 9b0e d2bd a075 e83b fbf5 943d 4426 723d
00000330: 1b72 6dbc 4f85 86bd 4493 ba3d ae54 1c3d
00000340: 7b86 d73d 4e96 953d 3b67 a43b c836 91bb
00000350: e91a de3d 1e82 e53d cd6e d33d b2d6 8a3d
00000360: 613c a13c a1b7 3c3d fbf3 5f3d bbf2 123e
00000370: 5c0f 9e3d aa61 963d 19cd 853d 8b81 5b3d
00000380: b9f5 143d a45b bebd fbca e9bd f0c1 cebd
00000390: 9d46 a8bd 11f5 59be b1c4 11bd b64d 23bd
000003a0: 7e47 bfbd 36f4 19bd 092e dabc c754 163c
000003b0: e65f 62bb 9c10 a7bd 428b 18bd 1b1e 1ebc
000003c0: 573c e93c 51d7 82bd 0aac 53bd 566f 48bd
000003d0: 2698 b73c 68e1 53bd 79b8 c2bd 188b a3bd
000003e0: 388b c8bd 15fa a3bd 71e2 ccbe 9f37 24be
000003f0: c99b 46be 4758 3fbe d99c c0be 0f22 12be

f5.bias f4 [120]
-1.5726613 0.49489847 -0.99567014 0.4724265 -0.1611563 0.21276142 -0.14709081 -0.33976984
0.16870609 -0.17353201 0.07724144 0.3650295 -0.010675155 0.77176195 1.1436636 0.668885
0.07604142 0.1694538 -1.381266 1.0636317 -0.4152095 -0.5241505 -0.73704845 -0.64844215
0.2518759 0.25117877 -0.16486356 0.36116183 -0.87528837 0.74015474 -0.66081256 -1.7499778
-1.357794 -0.05454052 -0.9987162 -0.39507502 0.27404502 -0.40378332 0.86882514 0.11750056
-0.77257186 -0.53690624 0.70275974 0.6336738 -0.5928925 -0.68873155 0.5494919 -0.4360968
-1.5171484 -1.1358733 -0.14195457 -0.14597043 0.3541431 0.06564552 0.8133084 -0.5166192
-1.143155 -0.55409044 0.0043029697 0.9259955 -0.85330987 -0.5249324 -0.31498647 -0.015336316
0.54452497 -1.3542914 0.61525035 -0.8103141 0.14921765 0.46936983 0.03924956 0.33901072
0.0014520722 -1.219592 -0.14119753 0.6999906 1.1913385 1.4335934 0.2831315 0.8315307
-1.4044781 -0.28612795 1.101001 0.042280752 -1.4473448 -0.71090305 1.0682402 -0.6598171
-0.007592836 0.12592277 0.97925156 0.38356984 1.119333 -0.8534285 1.3823583 0.8491724
-1.3123206 -0.27801153 1.4883218 0.88799393 1.1994907 -0.26419884 1.1811025 -0.13173227
-0.9782332 0.6961792 1.824865 -0.8182234 -0.78471345 -1.2941633 -1.2263956 -1.0736665
0.44829062 0.03275426 0.6021558 -1.0565959 -1.3670877 1.3227978 0.25882196 -0.31742495
00000000: f74c c9bf 5563 fd3e 3de4 7ebf e3e1 f13e
00000010: 2806 25be 21de 593e f99e 16be 50f6 adbe
00000020: 4ac1 2c3e 60b2 31be c330 9e3d 26e5 ba3e
00000030: d8e6 2ebc 3192 453f 9263 923f 0c3c 2b3f
00000040: 9bbb 9b3d 4c85 2d3e 53cd b0bf 1525 883f
00000050: 5796 d4be ba2e 06bf 35af 3cbf 4e00 26bf
00000060: e1f5 803e 819a 803e fed1 28be 34ea b83e
00000070: e612 60bf c87a 3d3f 032b 29bf 46ff dfbf
00000080: 32cc adbf e165 5fbd ddab 7fbf 4647 cabe
00000090: a14f 8c3e b0bc cebe 536b 5e3f 22a4 f03d
000000a0: 45c7 45bf b072 09bf 10e8 333f 7238 223f
000000b0: cec7 17bf b650 30bf 80ab 0c3f 1448 dfbe
000000c0: eb31 c2bf 4c64 91bf 8a5c 11be 4679 15be
000000d0: 3f52 b53e 2971 863d fb34 503f 2841 04bf
000000e0: e752 92bf dfd8 0dbf edff 8c3b 0b0e 6d3f
000000f0: 8472 5abf f861 06bf e845 a1be 2c45 7bbc
00000100: fd65 0b3f 6c59 adbf 0c81 1d3f bf70 4fbf
00000110: 83cc 183e 3e51 f03e 26c4 203d d092 ad3e
00000120: 7553 be3a 971b 9cbf 1696 10be 9532 333f
00000130: c87d 983f fd7f b73f 9df6 903e 32df 543f
00000140: f0c5 b3bf 5d7f 92be 9aed 8c3f 952e 2d3d
00000150: 9842 b9bf befd 35bf 18bc 883f c6e9 28bf
00000160: 53cd f8bb e6f1 003e 3bb0 7a3f 4463 c43e
00000170: 4e46 8f3f 4a7a 5abf 1ef1 b03f 5d63 593f
00000180: 1ffa a7bf 8757 8ebe 5481 be3f 9253 633f
00000190: e988 993f 1245 87be 5e2e 973f d3e4 06be
000001a0: 7e6d 7abf cd38 323f 2d95 e93f 1777 51bf
000001b0: fbe2 48bf 25a7 a5bf 88fa 9cbf e76d 89bf
000001c0: 5986 e53e 5529 063d e226 1a3f 893e 87bf
000001d0: bbfc aebf 7051 a93f 5084 843e 8685 a2be

f6.weight f4 [84, 120]
0.3247018 3.594586 -0.42358065 -1.2488925 -1.1607203 -0.12300851 0.49462262 -0.22996365
0.24712567 1.7731886 1.7788346 -1.6934755 -4.091259 0.39339998 0.23405498 0.90132344
3.6553135 -1.611461 -2.2397025 -2.8496711 0.47025648 -1.80828 -2.9415395 0.54353625
-0.7343563 -1.4926357 -2.6743128 0.46438068 -1.9930463 -1.7907829 0.02432872 -0.52069014
-3.288491 -1.4428833 -2.490437 -2.033312 -0.704829 3.7503805 -3.49544 -2.14473
2.5281854 -0.0093979975 0.71855706 0.68327034 -3.4709046 -1.5566038 -1.8268352 0.37189826
-3.4440012 -0.7919794 -4.4924116 -0.81683946 1.1094513 2.0251732 -3.366966 0.84849036
-0.99569124 1.9277205 0.7144386 2.7730086 -1.3636253 0.7283426 0.5170519 -3.11784
-4.192289 0.52092683 -2.880137 -2.6057537 2.303534 -2.8754144 -1.0070924 -1.6905841
-2.4274478 -3.1800163 0.52909476 0.7990937 -0.28332677 -0.53736806 -1.2856584 1.1017382
-0.73564947 -1.1838123 -1.4666619 0.40741763 -0.6089652 -2.4004836 -0.018081801 -0.48176062
-0.6492437 0.77980965 -2.813695 0.34764466 -4.808894 0.5696401 2.9178398 -0.89118445
-0.5671849 -0.55497473 0.07999256 -2.7862468 -0.83974814 0.88129085 -0.93871737 -1.732793
0.3975541 1.2641032 0.5168455 -1.5484198 0.049895577 -0.19549818 -0.19002101 -0.45806637
0.20273094 0.51642954 0.023430722 0.5904676 2.992517 -5.950177 -2.6063793 -1.8603878
-0.5213007 -0.058906745 -0.295315 -2.9735792 -1.0741655 0.11168547 0.14488117 -0.08755644
0.5444521 -0.69211906 -0.7376001 -0.46525162 1.419787 1.1092038 1.2131083 -1.0267521
-1.9270109 -0.02881791 3.1415508 -1.1380544 1.7802787 -0.27857697 1.5159906 1.7212733
1.8220229 1.1984386 0.14150621 0.80850875 -1.1089364 0.8686703 -0.5254257 -0.3465363
-0.36276415 0.2827354 0.6128775 -0.7028334 3.2056653 3.974778 -0.12680347 1.1779072
-3.2617347 0.30214283 0.94578165 -0.10240306 0.8018752 0.21847217 0.26816508 0.08516735
-0.50862354 -0.94981736 -0.90465623 1.7040712 -1.6691571 0.36064184 -1.5199946 0.31321198
-0.6845689 -0.04389503 -0.1111945 3.534203 0.012257646 -0.041810963 -1.032726 -0.62785256
1.3379123 -0.041187063 -0.2795137 -1.7697452 0.34066522 0.3842485 0.07861818 1.0873958
0.35489985 -2.797824 2.9245014 4.0707917 -1.1626339 0.024099546 -2.815 0.9236448
-1.1785405 -0.63471854 3.8885906 -0.7787537 0.90662193 -0.94388586 0.7528847 0.14747532
-0.30668506 -1.6337967 2.816528 1.9375178 0.22322427 1.6793243 4.278544 0.1746857
2.6634707 -0.3071963 -0.0747785 -0.168178 -0.32401717 -0.3164307 2.844858 0.7964636
-0.6277237 0.8302566 -1.0683213 -1.049137 0.31814837 -0.27264413 -0.13361494 -0.9297602
0.38111213 1.9640447 -0.5249282 -0.6427149 -1.4946687 -2.0472028 -0.948302 2.2253656
-1.5749882 2.2228563 -0.513751 0.63193077 0.756373 -1.357579 -0.22236788 -0.1571014
-0.14220303 1.7195785 0.5712649 -0.12449245 -1.1412395 0.12712751 -1.480354 0.08750273
00000000: 503f a63e b20d 6640 90df d8be b6db 9fbf
00000010: 7c92 94bf e3eb fbbd 2d3f fd3e 977b 6bbe
00000020: 830e 7d3e d8f7 e23f dab0 e33f cec3 d8bf
00000030: 98eb 82c0 b96b c93e 1cac 6f3e 22bd 663f
00000040: a8f0 6940 5b44 cebf 4957 0fc0 0361 36c0
00000050: 75c5 f03e b875 e7bf 2f42 3cc0 3125 0b3f
00000060: c6fe 3bbf b00e bfbf f127 2bc0 4ec3 ed3e
00000070: 241c ffbf 6038 e5bf 064d c73c f34b 05bf
00000080: a376 52c0 66b0 b8bf 5263 1fc0 c921 02c0
00000090: ac6f 34bf 3c06 7040 4ab5 5fc0 4243 09c0
000000a0: cacd 2140 0ffa 19bc 5bf3 373f ceea 2e3f
000000b0: 4d23 5ec0 cb3e c7bf bcd5 e9bf 7369 be3e
000000c0: 846a 5cc0 29bf 4abf d6c1 8fc0 641c 51bf
000000d0: 8002 8e3f 709c 0140 5f7c 57c0 aa36 593f
000000e0: 9fe5 7ebf 8cbf f63f 73e5 363f f978 3140
000000f0: 468b aebf a974 3a3f 835d 043f b18a 47c0
00000100: 3b27 86c0 765b 053f 2a54 38c0 abc4 26c0
00000110: 1a6d 1340 ca06 38c0 67e8 80bf 0f65 d8bf
00000120: 4e5b 1bc0 6385 4bc0 c172 073f 6891 4c3f
00000130: 3510 91be f490 09bf 7490 a4bf c205 8d3f
00000140: 8653 3cbf 2987 97bf 94bb bbbf 0b99 d03e
00000150: 25e5 1bbf 86a1 19c0 4920 94bc 54a9 f6be
00000160: d634 26bf 9ba1 473f 9413 34c0 7bfe b13e
00000170: 76e2 99c0 efd3 113f e3bd 3a40 aa24 64bf
00000180: 0833 11bf d312 0ebf 24d3 a33d de51 32c0
00000190: bcf9 56bf 479c 613f c84f 70bf 29cc ddbf
000001a0: 368c cb3e 22ce a13f fd4f 043f 9f32 c6bf
000001b0: 4e5f 4c3d ad30 48be de94 42be ad87 eabe
000001c0: b398 4f3e ba34 043f c9f1 bf3c e228 173f
000001d0: 6685 3f40 da67 bec0 ebce 26c0 3021 eebf
000001e0: f673 05bf 3348 71bd 8733 97be 1f4f 3ec0
000001f0: 417e 89bf 5abb e43d bb5b 143e ca50 b3bd
00000200: 3661 0b3f b72e 31bf 5cd3 3cbf 7635 eebe
00000210: 95bb b53f 64fa 8d3f 2247 9b3f 9d6c 83bf
00000220: 4ba8 f6bf 8a13 ecbc 2b0f 4940 c4ab 91bf
00000230: 2ce0 e33f a4a1 8ebe fb0b c23f af52 dc3f
00000240: 0c38 e93f 7066 993f 01e7 103e 6efa 4e3f
00000250: a1f1 8dbf 2d61 5e3f 4c82 06bf 356d b1be
00000260: 39bc b9be b2c2 903e 8ae5 1c3f e4ec 33bf
00000270: 9f29 4d40 c362 7e40 c5d8 01be aac5 963f
00000280: 43c0 50c0 77b2 9a3e bf1e 723f b2b8 d1bd
00000290: b147 4d3f 2bb7 5f3e ef4c 893e 386c ae3d
000002a0: 2735 02bf 3b27 73bf 8d97 67bf 011f da3f
000002b0: f1a6 d5bf 0ca6 b83e 2f8f c2bf 525d a03e
000002c0: e83f 2fbf 46cb 33bd f1b9 e3bd 6230 6240
000002d0: 4bd4 483c f941 2bbd 5e30 84bf f2ba 20bf
000002e0: b640 ab3f c4b3 28bd 6b1c 8fbe 0387 e2bf
000002f0: ac6b ae3e 38bc c43e 9102 a13d c92f 8b3f
00000300: 6fb5 b53e 8c0f 33c0 082b 3b40 ed43 8240
00000310: 30d1 94bf 696c c53c f628 34c0 fc73 6c3f
00000320: 6ada 96bf ea7c 22bf abde 7840 675c 47bf
00000330: 6018 683f 81a2 71bf 0dbd 403f c503 173e
00000340: d305 9dbe 4020 d1bf ff41 3440 9500 f83f
00000350: e794 643e 19f4 d63f d5e9 8840 cfe0 323e
00000360: 4e76 2a40 d548 9dbe 7825 99bd db36 2cbe
00000370: 94e5 a5be 3403 a2be 2712 3640 0ae5 4b3f
00000380: 80b2 20bf b28b 543f c1be 88bf 1f4a 86bf
00000390: 58e4 a23e 0398 8bbe 5bd2 08be c404 6ebf
000003a0: 2121 c33e d165 fb3f b261 06bf f788 24bf
000003b0: 4e51 bfbf 5f05 03c0 ebc3 72bf 646c 0e40
000003c0: 3799 c9bf 4743 0e40 2f85 03bf 37c6 213f
000003d0: a9a1 413f 26c5 adbf 68b4 63be 30df 20be
000003e0: ac9d 11be 261b dc3f 6b3e 123f e6f5 febd
000003f0: 2314 92bf b72d 023e 3d7c bdbf a234 b33d

f6.bias f4 [84]
-0.55532324 0.6787578 -0.48509407 1.0094533 -0.094870575 -0.14960107 0.09169331 0.37387455
0.20580949 0.21045385 -0.24941714 -0.47960547 0.5884305 0.9091685 -0.62482536 -0.3852245
0.05575735 -0.33593845 -0.8716061 -0.6823956 0.5792171 -0.9454522 -0.46039766 0.34211332
-0.50673515 -0.20344648 0.776497 0.092285186 -0.37929443 0.14383298 0.29803103 -0.10393563
-0.8586123 -0.95287937 -1.4554974 -0.6635117 1.0580454 -0.17922217 0.3948427 -0.40298492
0.43877143 0.16543552 -0.5235205 -0.9211516 -0.3278521 0.8321852 0.017815767 -0.82349133
-0.10708533 -0.4877819 0.5973895 0.49833426 -0.19179153 0.93859637 -0.71435606 0.56224686
-0.7777707 -0.20392957 0.90730536 -0.32361636 0.74791414 -0.5371003 -0.19953318 -0.20044626
0.7621919 0.27295977 -0.6297262 -0.42491737 0.9826668 0.083675176 -0.5851714 0.89215213
1.0528065 0.51947486 0.4664685 0.16476668 0.054779954 0.15911861 0.25488582 -0.35131156
0.027067011 -0.2861851 -0.14008655 0.6971513
00000000: aa29 0ebf 12c3 2d3f 405e f8be c435 813f
00000010: 814b c2bd 0631 19be b4c9 bb3d 7c6c bf3e
00000020: b9bf 523e 3781 573e 3567 7fbe d98e f5be
00000030: 62a3 163f 44bf 683f 8ef4 1fbf 253c c5be
00000040: d261 643d 2000 acbe 9421 5fbf 7ab1 2ebf
00000050: 9247 143f 2809 72bf 3eb9 ebbe 7a29 af3e
00000060: 65b9 01bf 4654 50be 82c8 463f 0400 bd3d
00000070: e132 c2be f448 133e 8697 983e 34dc d4bd
00000080: 04ce 5bbf e7ef 73bf bd4d babf e7db 29bf
00000090: 086e 873f 0486 37be d328 ca3e 0a54 cebe
000000a0: a6a6 e03e ee67 293e 7105 06bf 97d0 6bbf
000000b0: 3bdc a7be 170a 553f 5ff2 913c 54d0 52bf
000000c0: 8e4f dbbd 8dbe f9be 85ee 183f ab25 ff3e
000000d0: 0065 44be da47 703f 0ae0 36bf 69ef 0f3f
000000e0: fb1b 47bf ead2 50be 2a45 683f 0bb1 a5be
000000f0: 4d77 3f3f 687f 09bf 6d52 4cbe c941 4dbe
00000100: 021f 433f 62c1 8b3e bc35 21bf c58e d9be
00000110: 0d90 7b3f e45d ab3d cbcd 15bf 1564 643f
00000120: 5dc2 863f 4efc 043f f6d4 ee3e 99b8 283e
00000130: f260 603d fdef 223e 6580 823e 1cdf b3be
00000140: a3bb dd3c da86 92be d972 0fbe 8278 323f

f7.weight f4 [10, 84]
0.1084919 -1.9067688 0.23465861 -4.287302 -4.3767495 -1.1209834 -1.798738 -1.6006963
0.40503588 -1.4594275 -0.6744245 -2.4831622 -1.1249362 2.5908754 -0.15678045 2.0124075
1.2700459 1.2996849 1.4790474 -0.0030734218 0.39499468 -0.5351394 -1.1603519 0.9171471
-2.2191255 -3.0757468 -2.6725976 1.7526655 2.0624695 -2.2881567 -3.468402 -0.3883878
-1.3642081 -2.786997 1.9920586 -3.2880588 -1.7969629 -5.9938083 -4.1481113 -1.9015969
-2.7559748 -1.1025423 -3.2330558 -1.8737228 1.5670516 -1.6505687 0.6793798 -1.9112276
-0.24504274 -2.6130292 2.0995278 -2.0851207 -2.1756318 1.516619 -2.5519948 -2.6935651
-0.83364433 2.5641167 -4.287219 -0.99622744 -0.37430325 0.36889765 -2.2506115 -0.52740073
1.5383276 -4.899219 -1.0445296 0.4780186 1.078581 -3.1267092 -0.33796018 -5.6551733
-2.0127635 2.0101092 -1.4086454 1.1041434 2.120486 -4.444784 3.2138395 -3.849477
-0.068500966 0.43397513 1.5153487 -2.9209256 -1.5491952 -1.0547003 0.6161017 -0.45709017
1.1490633 -0.2872669 -0.13067824 0.19808792 -2.9047933 0.07241546 -0.10478363 -0.23671195
1.6396242 -4.916443 0.46899202 -1.2323476 -3.422562 0.17959581 -4.8838267 0.8425301
1.7935433 -0.9731961 -5.2294583 0.062096264 1.6376529 0.6235093 -0.23941319 -2.372016
0.14107998 2.5976777 0.40712726 -0.1909723 -0.6813012 -0.46951643 3.26187 -1.2751794
-1.4888092 1.9282614 -0.7253728 -0.14010327 -2.4739807 -0.100882396 -2.0884764 -1.4460114
-0.083603695 -2.5624871 -1.8062944 -0.5854405 2.43093 0.3270159 0.93490314 -0.19945535
-4.540924 -2.959171 -2.4521022 -0.95387715 2.0310733 -1.9842722 -0.8322285 -0.18447244
-1.747432 0.17678408 -0.5147314 -0.08312529 -0.22277157 0.26908624 -0.8481472 -5.134805
-1.9492127 -0.78424305 3.4086354 -3.366608 -0.33380836 1.8816687 -0.19508664 1.6802809
-1.862295 1.0051665 -1.9190598 3.6748402 -0.96311885 -1.3449289 1.1650256 -1.2144264
-1.0185461 1.4166833 -2.189201 -1.8778796 -1.6751484 -0.4993266 -0.23694843 -0.7611424
-0.24719213 -1.6632587 -0.28375122 -0.98953074 -2.3858767 1.660952 -3.5363662 -0.28297803
3.451288 -1.7531941 -0.52110684 -3.2886727 -0.8703462 1.4877156 2.3868482 -0.47932336
-1.6081029 -0.3723675 -1.0833455 -2.373527 -5.527179 -1.037894 -4.6964154 -0.24980076
-0.5242212 3.5877755 0.11107719 -2.4302034 1.9326868 -0.3712964 -1.3914087 -0.2210769
-2.990064 -0.15326065 3.0405014 -1.2119356 -0.47229084 -1.31861 -0.534252 -3.6178594
0.814344 1.4506321 1.3641405 -0.23254207 -1.1657674 1.5934073 -0.0981219 -5.5655746
-2.1089206 -2.7122583 -0.86068785 -1.2224034 -0.9259383 -0.5279218 -0.72201025 -0.22378263
-0.92483485 -2.1523285 -0.33856258 -1.5867844 2.2415712 -0.9422118 -2.2895124 -1.6384019
-2.5007083 -2.5233824 -0.16870502 -2.0079286 -1.769143 -3.194931 -1.3527977 2.4503305
-0.9710812 1.8098533 -2.6492362 -0.1976709 -2.0917907 -1.6662997 1.4465386 -0.57214177
00000000: 0031 de3d 0011 f4bf 594a 703e 9431 89c0
00000010: 550e 8cc0 627c 8fbf 0c3d e6bf 9ee3 ccbf
00000020: dd60 cf3e 85ce babf 16a7 2cbf 21ec 1ec0
00000030: e9fd 8fbf e7d0 2540 0e8b 20be 49cb 0040
00000040: dd90 a23f 135c a63f 6d51 bd3f 766b 49bb
00000050: be3c ca3e e5fe 08bf 6986 94bf 27ca 6a3f
00000060: 2706 0ec0 09d9 44c0 d70b 2bc0 5857 e03f
00000070: 80ff 0340 2971 12c0 4cfa 5dc0 c4da c6be
00000080: 5f9e aebf 295e 32c0 c7fb fe3f 8e6f 52c0
00000090: e102 e6bf 47cd bfc0 54bd 84c0 8767 f3bf
000000a0: e461 30c0 1b20 8dbf 63ea 4ec0 26d6 efbf
000000b0: 2695 c83f d645 d3bf d6eb 2d3f 1ba3 f4bf
000000c0: 7cec 7abe df3b 27c0 aa5e 0640 9e72 05c0
000000d0: 8d3d 0bc0 9220 c23f e253 23c0 5f63 2cc0
000000e0: b769 55bf 7d1a 2440 e630 89c0 c308 7fbf
000000f0: ada4 bfbe 27e0 bc3e 050a 10c0 bc03 07bf
00000100: ebe7 c43f 67c6 9cc0 25b3 85bf dbbe f43e
00000110: f10e 8a3f 011c 48c0 1e09 adbe 2ef7 b4c0
00000120: 1ed1 00c0 a1a5 0040 7e4e b4bf 9254 8d3f
00000130: 0bb6 0740 ac3b 8ec0 8caf 4d40 d55d 76c0
00000140: 3c4a 8cbd fd31 de3e f2f6 c13f 72f0 3ac0
00000150: 074c c6bf 6b00 87bf d7b8 1d3f b907 eabe
00000160: 8214 933f a614 93be 84d0 05be 8fd7 4a3e
00000170: 22e8 39c0 8f4e 943d cd98 d6bd 9e64 72be
00000180: 35df d13f 8053 9dc0 b91f f03e 91bd 9dbf
00000190: 410b 5bc0 f7e7 373e 4f48 9cc0 0db0 573f
000001a0: d492 e53f 6123 79bf b957 a7c0 a758 7e3d
000001b0: 9c9e d13f 4e9e 1f3f bb28 75be 1ccf 17c0
000001c0: 4577 103e 5a40 2640 fc72 d03e 3e8e 43be
000001d0: c169 2ebf 7564 f0be 7ac2 5040 1439 a3bf
000001e0: 4d91 bebf 45d1 f63f 08b2 39bf 3b77 0fbe
000001f0: b355 1ec0 6e9b cebd 99a9 05c0 e716 b9bf
00000200: 6a38 abbd caff 23c0 a834 e7bf 6edf 15bf
00000210: 5b94 1b40 a16e a73e d055 6f3f 063e 4cbe
00000220: 404f 91c0 0f63 3dc0 3eef 1cc0 4b31 74bf
00000230: 1bfd 0140 a2fc fdbf ed0c 55bf 58e6 3cbe
00000240: daab dfbf e306 353e 70c5 03bf 983d aabd
00000250: 3b1e 64be acc5 893e 2d20 59bf 5350 a4c0
00000260: cd7f f9bf 27c4 48bf 1527 5a40 8176 57c0
00000270: eee8 aabe 85da f03f cbc4 47be 7213 d73f
00000280: af5f eebf 4ca9 803f c0a3 f5bf 9530 6b40
00000290: f58e 76bf a126 acbf 8f1f 953f 5372 9bbf
000002a0: b85f 82bf e155 b53f df1b 0cc0 5c5e f0bf
000002b0: 436b d6bf bca7 ffbe 9ca2 72be 3ada 42bf
000002c0: ef1f 7dbe a9e5 d4bf d747 91be e351 7dbf
000002d0: 34b2 18c0 139a d43f d353 62c0 7fe2 90be
000002e0: e7e1 5c40 aa68 e0bf 4267 05bf 9d79 52c0
000002f0: 02cf 5ebf 776d be3f 1fc2 1840 df69 f5be
00000300: 51d6 cdbf f4a6 bebe 11ab 8abf dee7 17c0
00000310: a6de b0c0 b6d9 84bf 0949 96c0 c5cb 7fbe
00000320: 5c33 06bf 1d9e 6540 707c e33d 7488 1bc0
00000330: 4862 f73f 901a bebe ae19 b2bf fc61 62be
00000340: 355d 3fc0 5cf0 1cbe 9397 4240 b520 9bbf
00000350: 1bd0 f1be 36c8 a8bf bdc4 08bf 028b 67c0
00000360: d978 503f 50ae b93f 289c ae3f 821f 6ebe
00000370: de37 95bf c5f4 cb3f 22f4 c8bd 3019 b2c0
00000380: 8ef8 06c0 a495 2dc0 0a56 5cbf b777 9cbf
00000390: 4b0a 6dbf e225 07bf aad5 38bf 4627 65be
000003a0: fac1 6cbf c0bf 09c0 1358 adbe c01b cbbf
000003b0: e775 0f40 cb34 71bf 5f87 12c0 27b7 d1bf
000003c0: 9b0b 20c0 197f 21c0 02c1 2cbe e781 00c0
000003d0: 4773 e2bf c079 4cc0 7a28 adbf 37d2 1c40
000003e0: c798 78bf 46a9 e73f 168d 29c0 3e6a 4abe
000003f0: e6df 05c0 4f49 d5bf 2d28 b93f e277 12bf

f7.bias f4 [10]
1.6264211 1.5096687 1.0576724 1.0967323 0.19130109 -1.6210109 0.22648683 -1.5561553
-1.1320548 -1.293865
00000000: 912e d03f d33c c13f cf61 873f b961 8c3f
00000010: 6fe4 433e 497d cfbf 2aec 673e 1930 c7bf
00000020: 2ce7 90bf 5e9d a5bf
